Practice5/logs/lightning_logs/version_2/checkpoints/epoch=14-step=7875.ckpt (torch, 427198 bytes, 12 tensors)

layers.1.weight f4 [64, 784]
000000 23 ec 01 3d 67 57 a0 bc d7 b2 8e bc f1 fb f9 bc
       0.03171934 -0.019572927 -0.017419262 -0.030515643
000010 0a 7e a8 3c 22 fc f7 3c 80 03 24 bb e2 d4 94 3c
       0.020567913 0.030271593 -0.00250265 0.018167917
000020 24 a3 ef bb e0 f3 08 bd 64 5b 91 3c b1 c9 06 3d
       -0.007313149 -0.033435702 0.017743774 0.03290719
000030 6e 38 fe 3c a0 54 18 3c e7 d9 a2 bc b8 fa ba 3b
       0.031032767 0.00929752 -0.019879295 0.0057061575
000040 c0 23 08 bd ec 37 ff bc 84 29 7a 3c f0 44 60 3c
       -0.03323722 -0.031154595 0.015268687 0.013688311
000050 4c 1c d5 3c 38 ff 07 3c be 02 fa bc 00 99 c1 39
       0.02601447 0.008300595 -0.030518886 0.00036925822
000060 92 aa 80 3c e0 b7 13 bb f5 a7 f3 bc 6a 7f fc bc
       0.015706334 -0.0022540018 -0.029743174 -0.030822475
000070 48 6d 47 3c 10 9b 09 3b 02 ab f2 3c 05 dd 83 bc
       0.012172051 0.0020996965 0.029622559 -0.016096601
000080 90 81 37 bb 78 67 06 3c a0 81 1f bb 81 8d 11 3d
       -0.002800081 0.00820338 -0.0024338737 0.03553534
000090 6a b2 f6 3c 35 57 04 3d 75 96 a7 bc f0 cf 11 bd
       0.030114371 0.03230973 -0.020457486 -0.035598695
0000a0 3a 2c df bc 72 3f d8 3c 2a 31 09 bc 3e 91 f4 3c
       -0.027242769 0.02639744 -0.008373538 0.029854413
0000b0 16 91 de 3c 9a 37 dc bc c0 b5 9b bb e0 35 8c ba
       0.027168792 -0.026881982 -0.004751891 -0.0010697208
0000c0 46 10 4b bc 7a 01 80 bc 10 b8 45 3b f0 a7 85 bc
       -0.012394017 -0.015625704 0.0030169524 -0.01631543
0000d0 3f 06 01 3d 2e ff c8 bc 76 ff d6 3c 74 02 7a bc
       0.031500097 -0.024535742 0.02624486 -0.015259374
0000e0 10 b7 c4 3c 9c 75 9b 3c 1c 39 8b 3c 24 6c 19 3c
       0.024013072 0.018976979 0.016995005 0.009364162
0000f0 77 59 05 3d 7c 29 47 3c 7c a7 71 bc f8 46 f2 bc
       0.032556023 0.012155887 -0.014749404 -0.029574856
000100 bb 4d 0f 3d ae 7b c8 3c 84 58 ad bc f4 89 a9 3c
       0.03498624 0.024473038 -0.021160372 0.020695664
000110 b8 10 09 3d 9f 22 6f 3c 6d ff ac 3c 6d 2b 99 bc
       0.03346321 0.014595657 0.02111789 -0.018697465
000120 6f a2 0c 3d 1c 11 0c bd 0d 64 86 3c cf 43 0a bd
       0.034334596 -0.034196004 0.01640513 -0.033756074
000130 ee 61 a6 bc f0 31 ac bb ac 90 91 3c 1c 8e 83 bc
       -0.020310368 -0.0052549765 0.01776918 -0.016058974
000140 18 d1 0c bc 48 96 b5 bb bc b5 7c bc 75 fe e0 bc
       -0.008594774 -0.0055415966 -0.015424188 -0.027465085
000150 40 5e 53 bc 76 ed fb 3c 8e 0b c1 3c 8b 7b 00 3d
       -0.012900889 0.030752879 0.02356508 0.03136782
000160 6a 40 bc 3c 5a b4 8b bc 80 ef 3f ba 0e 4c 1e bc
       0.022979934 -0.017053772 -0.000732176 -0.009661688
000170 ec 47 7f 3c a5 7d 2f bc 93 cb c7 bc 55 fe c7 3c
       0.015581112 -0.010711108 -0.024389064 0.024413267
000180 85 bd 02 3d d8 da b0 bb 5f cc 03 3d 7d dc 78 3c
       0.03191902 -0.005397182 0.032177325 0.015189287
000190 46 16 bf 3c bd 33 ac 3c 36 9d 64 3c 73 8b 06 3d
       0.02332605 0.021020764 0.013953498 0.032847833
0001a0 dd 3c e5 bb 4b c8 0b bd c1 cb 11 3d 95 62 86 bc
       -0.006995781 -0.03412656 0.035594705 -0.01640443
0001b0 f5 cb ac bc c1 ff e6 bc d0 a7 1e 3c c2 ae 02 bd
       -0.021093348 -0.028198125 0.009683564 -0.031904943
0001c0 54 45 cc bb 0e 34 b9 3c 70 5b 3a 3b d4 5e 36 3c
       -0.0062338505 0.02260783 0.0028435849 0.011131007
0001d0 9c cf 88 bc 13 4c 03 bd 4a 0b bb bc c4 39 f0 3b
       -0.016700558 -0.032054972 -0.022832531 0.007331105
0001e0 7f 31 ba bb de 69 89 bc 5c b5 9c bc f7 e7 aa 3b
       -0.00568217 -0.016774114 -0.019129448 0.0052156406
0001f0 50 ae 4f bc 9a 55 db 3c fe 99 3a bc b5 b9 91 bb
       -0.012675837 0.026774216 -0.011389254 -0.004447187
000200 23 18 1e bc 75 9a de bc b4 03 02 bc 1a 14 ef bc
       -0.009649309 -0.02717326 -0.007935453 -0.02918439
000210 44 40 2e bd 96 c7 fd bc 3e c6 05 bd 4c 8b 3b 3b
       -0.042541757 -0.030978959 -0.03265976 0.0028616963
000220 4f 32 08 3d 60 6f 6b bb 0e 50 ff bc dc fb 81 3c
       0.033251103 -0.003592454 -0.031166103 0.015867166
000230 e8 52 88 3b 74 9a 67 3c 2c 97 8b bc 1f a9 07 bd
       0.004160274 0.014135946 -0.017039858 -0.03312027
000240 95 b4 02 3d 80 41 3a 3b 26 e4 0f ba d5 b2 c3 bc
       0.031910498 0.0028420389 -0.0005489014 -0.023888985
000250 ef 3a 3a bc 64 67 08 bd a5 e6 bf 3c 86 27 91 3c
       -0.01136659 -0.033301726 0.02342541 0.017719042
000260 09 36 c6 36 21 15 8e 3b 75 06 8e bc aa 12 2a bd
       5.9071504e-06 0.004336015 -0.017337063 -0.041521706
000270 be cf 6f bc a9 44 6f bb 07 61 4e bd e1 01 d6 bc
       -0.014636932 -0.003650943 -0.0503855 -0.026123943
000280 b7 dc 97 3c 3f 4b 83 3c dd 2e c9 bc b1 07 0c 39
       0.018537862 0.016027091 -0.024558479 0.00013354306
000290 37 e0 ff bc b2 b8 83 ba 21 13 03 3d a6 cd b4 3c
       -0.031234844 -0.001004955 0.032000665 0.022070717
0002a0 66 90 ee 3c f0 77 3a 3c c0 2d 31 ba 5c 56 2e 3c
       0.029121589 0.011381134 -0.00067588314 0.010640707
0002b0 1e c5 8d 3c 22 f3 5e 3a 1e 61 14 bd 0d 24 e2 bb
       0.017305907 0.00085048575 -0.03622543 -0.0069012702
0002c0 40 60 2e bc 01 c9 07 bd af bf 48 bd c5 80 5a bd
       -0.010643065 -0.033150677 -0.04901093 -0.05334546
0002d0 b3 ca 87 bc c2 4d 80 bc 3d 75 b8 bc 4b 17 48 bc
       -0.016576147 -0.015662078 -0.022516841 -0.012212585
0002e0 ea c2 1f bd 5c f6 1a bd 5b 7f 14 bd d9 ed 6b 3c
       -0.039004244 -0.037832603 -0.03625427 0.014399969
0002f0 e1 54 2a bd d4 0d 1d bd 0e aa 02 bc 97 e6 ca 3b
       -0.041584853 -0.038343266 -0.0079751145 0.006192039
000300 5e 73 ea bc ce 97 ef 39 e0 25 47 bc 70 c3 15 3c
       -0.028619464 0.00045698736 -0.012155026 0.009140834
000310 00 8a 11 ba 83 16 06 bd 64 80 44 3c 20 b2 e3 3a
       -0.00055518746 -0.032736313 0.011993501 0.0017371811
000320 9f 53 e5 3c 67 de a8 bc 72 3f 86 3c cb e3 9b 3c
       0.027993975 -0.020613862 0.016387675 0.019029519
000330 54 d6 ae bc 6c d1 84 3c 97 c6 dd ba b2 ae af 3b
       -0.021342434 0.016213141 -0.0016920146 0.0053614015
000340 47 a0 16 bc 41 44 c1 bc db 30 ae bc dd 00 0c bd
       -0.0091934865 -0.023592116 -0.02126353 -0.03418051
000350 73 b6 2b bd f5 3d 46 bd e8 f6 05 bd 87 26 29 bc
       -0.041922044 -0.04839893 -0.03270617 -0.010324127
000360 55 fd 1a bd 83 ca bc 3c 5f 4a c7 3a 13 62 cf bc
       -0.037839253 0.023045784 0.001520466 -0.02531532
000370 43 21 8f bc 7e 7b e7 3c c2 f9 2f 3c 35 8c d5 bc
       -0.017471915 0.028257128 0.010740699 -0.026067832
000380 e0 ac a1 3c 4c c0 06 bd d8 38 d1 bc 7c 2f 90 3c
       0.019735754 -0.032898232 -0.0255398 0.017600767
000390 3b ac df ba 5d d3 12 bb 94 58 f1 bc 35 7b b0 bc
       -0.0017064878 -0.0022403814 -0.029461183 -0.021543125
0003a0 11 4a a6 bc 14 0e b1 bc f0 76 21 bd 2e c8 17 3c
       -0.02029899 -0.021613158 -0.03942007 0.009264035
0003b0 a8 d5 20 bc 26 2f 55 bd 3f 0b 4a bd e1 d9 b4 3b
       -0.009816565 -0.052046917 -0.04932713 0.0055191373
0003c0 bf c6 11 bd 8f 5f 87 bc 96 33 95 bc cb 68 e0 bb
       -0.03558993 -0.016525058 -0.018213075 -0.00684843
0003d0 e2 d7 39 bc 3b aa 8e 3b 09 31 bd 3c eb 2f 16 bc
       -0.011342974 0.004353789 0.02309467 -0.009166698
0003e0 fd ed 02 3d e9 64 b7 3a d1 a8 0c bc 80 47 39 3a
       0.031965245 0.0013991866 -0.008585171 0.0007067844
0003f0 09 5b 07 3d 84 f4 54 3c f6 16 96 3c c0 b1 1a 3a
       0.033045802 0.01299775 0.018321496 0.00059011206

layers.1.bias f4 [64]
000000 d8 d9 a4 3c ab f6 5e bc 89 74 6e 3c 55 77 55 3c
       0.020123407 -0.013608615 0.014554151 0.013028939
000010 4f 62 fd bb f7 cc be 3c cd c9 83 3b cb 93 7c bc
       -0.0077326666 0.023291094 0.0040218593 -0.015416096
000020 28 f3 33 bc 75 75 ad bc f7 07 8c bb 16 4d ea 3c
       -0.010983266 -0.021174172 -0.0042734104 0.02860121
000030 84 22 c7 bc f6 ae 51 bc ba a1 0b bd 3e 46 07 bc
       -0.02430845 -0.012798062 -0.03408978 -0.008256493
000040 ec 07 0f bd 45 68 87 3c 82 74 8c 3c ab 67 d7 bc
       -0.034919664 0.016529212 0.017145399 -0.02629455
000050 1e b2 c7 3c d6 19 85 bc b9 f3 ed bc b1 0c 01 3d
       0.024376925 -0.016247671 -0.02904688 0.031506244
000060 9d 12 9f 3c ff da cc 3b 4e 75 cd bc 71 31 da 3c
       0.019418055 0.0062516923 -0.02508035 0.026634904
000070 fe f8 00 bd 03 dd 91 bc 99 5c 87 3c c7 77 c1 b9
       -0.031487457 -0.017805582 0.016523646 -0.0003690107
000080 d2 15 87 3c 23 d2 e1 3a 3c 0d a4 3b 26 9d 03 3c
       0.016489897 0.0017228763 0.0050064605 0.008033073
000090 ca 99 03 3d 63 a9 80 bc 75 82 54 bb a4 7e 20 3c
       0.032129087 -0.01570577 -0.0032426391 0.0097958185
0000a0 fa 77 f9 3c fa 4b 02 3d 25 c4 03 3d 47 13 8f bc
       0.030452717 0.03181074 0.03216948 -0.017465247
0000b0 30 eb d3 3c d9 eb dc bc ee 5b 2e 3c b8 c5 dd 3c
       0.025868982 -0.02696793 0.010642035 0.027071819
0000c0 28 ff 0d 3d 58 82 9e 3c ab e0 87 bc 62 37 f6 3c
       0.034667164 0.019349262 -0.016586622 0.030055705
0000d0 5d 84 4d bc 1f 86 9f bc 3d e5 cc bc 15 4b 15 bc
       -0.012543765 -0.019473134 -0.025011653 -0.009112139
0000e0 85 4e d2 bc 09 34 0e 3a ef 51 50 bc f4 cf 51 3c
       -0.025672207 0.0005424624 -0.012714847 0.012805928
0000f0 d4 f1 ef 3b 7f 94 05 ba 75 2f 03 bd f1 eb 76 bc
       0.0073225293 -0.0005095675 -0.03202768 -0.015070901

layers.3.weight f4 [32, 64]
000000 3c 44 4f 3d 2f c1 ba bd c5 c9 62 bc 6a dd 2d 3d
       0.050602183 -0.09118878 -0.013842051 0.042447485
000010 81 86 db bd 7d 20 1b 3c b9 d4 f1 3d 15 d6 b9 bc
       -0.10719014 0.009468195 0.11808152 -0.02268509
000020 a9 e5 a1 3d 8b 0e 15 bd 81 91 da 3c 88 3e 1d be
       0.07905132 -0.036390822 0.02668071 -0.15355885
000030 71 34 30 3e 6a ec 33 bd 5c d9 e7 3d b1 4c 0f bd
       0.17207505 -0.043926634 0.11320755 -0.034985248
000040 f2 84 78 bd 00 f1 c2 3c f4 23 b8 3d 76 88 9c bd
       -0.06067366 0.023796558 0.089912325 -0.07643215
000050 47 32 cb bc de a5 b5 bc 2a 73 ea bd 97 cc 77 bd
       -0.024804248 -0.022173818 -0.11447747 -0.060497846
000060 53 76 8f bd d1 a7 70 bd ed 05 b2 bb 22 a5 87 bd
       -0.070049904 -0.058753792 -0.0054328353 -0.066232935
000070 90 4b 46 3d 26 00 35 3d ed 46 89 3d 42 6d fb bd
       0.048411906 0.044189595 0.06702981 -0.12276699
000080 4b 2c ab 3b 46 9b 70 bd 30 7c 2d be 9c ea 05 3d
       0.005223786 -0.05874183 -0.16941905 0.032694444
000090 0e ed ce bd 8d f9 92 3d 56 b2 4c bd ca d0 a2 3d
       -0.10103808 0.07176504 -0.049974762 0.079499796
0000a0 61 c0 b7 bd 53 84 a4 3d b5 2b e1 bd 2a 3c 35 bc
       -0.0897224 0.08033051 -0.109946646 -0.0110617075
0000b0 3f a6 31 3c b7 75 56 3d e9 68 dd 3c 4a b9 bc 3d
       0.010842859 0.052358355 0.027027564 0.092150286
0000c0 46 f9 a4 b8 c1 1c ce 3b c3 36 98 bd 17 d9 8d bc
       -7.86656e-05 0.006290049 -0.0743232 -0.01731543
0000d0 51 87 07 3d 26 9e a0 bb 3c ab 5f 3c 79 3a ca 3d
       0.033088032 -0.0049016653 0.013651665 0.09874434
0000e0 79 f3 11 3c e2 bf 55 3c 54 96 d0 3d 1f ce 91 3d
       0.008908146 0.013046237 0.10184923 0.071193926
0000f0 ba 50 2b 3c 93 6c 5a 3d ed 15 a7 bd 3f ff 2b be
       0.010456258 0.0533262 -0.08158479 -0.16796587
000100 fd 00 bc 3c ba 0f 54 3d f8 35 02 be 3b 39 6e 3d
       0.02294969 0.05177281 -0.127159 0.058160048
000110 94 eb a6 bd 90 1e d9 3d 01 a4 e0 3c 8c 00 43 bd
       -0.08150402 0.106015325 0.027421953 -0.047607943
000120 69 59 96 3c ad 30 ad bc 56 40 67 3d 84 54 e1 bd
       0.018353181 -0.021141374 0.05645784 -0.11002448
000130 3b db 19 bd 5f eb 9c 3c 63 a3 da bd 8e 2d 04 be
       -0.03756259 0.019155202 -0.10675695 -0.12908003
000140 cd ee 84 3d c2 83 63 bd af 50 a0 3d a9 50 38 bd
       0.0649086 -0.055545576 0.07827889 -0.0449988
000150 2c 1d 0b be 49 d7 bd 3a b0 b0 31 bd c7 5a 29 bd
       -0.13585347 0.0014483716 -0.043381393 -0.041346338
000160 df d4 5f 3d 3f cf 7f 3d dd 8c b8 bd c4 2c ee bd
       0.05464637 0.062453505 -0.090112425 -0.11629632
000170 68 12 05 be df 7f 2b be 9b 11 96 3c 08 f3 dc 3a
       -0.12995303 -0.16747998 0.018318942 0.0016857097
000180 bf f6 aa bd bf 43 1a bd ce da 8a bd ab 7d c3 3b
       -0.08347844 -0.037662264 -0.06780015 0.0059659085
000190 4d 44 5f b9 ea b6 89 3d e3 99 03 ba 25 3a 80 3d
       -0.00021292381 0.06724341 -0.00050201843 0.0626109
0001a0 58 e0 70 3d 2f 7f 7d 3d 16 ce d1 bd 6e 97 00 3d
       0.0588077 0.06188887 -0.10244386 0.031394415
0001b0 e6 0d 73 3c 23 6d b8 3d 08 ce 06 be 69 30 40 bd
       0.014834857 0.09005191 -0.13164532 -0.046921168
0001c0 de c4 bc 3c 38 15 a5 3d aa c7 90 3d e3 93 19 bd
       0.023043092 0.08060688 0.07069333 -0.03749455
0001d0 74 42 d7 bd 23 4b dd 3b d0 49 19 bd fb 82 ff bd
       -0.10510722 0.0067533418 -0.03742391 -0.124761544
0001e0 95 ca 68 3d 12 15 06 be 46 78 a7 bc 13 90 e6 bb
       0.056833822 -0.13093975 -0.020443093 -0.007036218
0001f0 a4 f7 05 bd b5 a2 78 3d 6e 08 dd bc 51 7c 5d bd
       -0.03270687 0.060702045 -0.026981559 -0.054073635
000200 64 41 00 3d b2 52 68 3d 81 b2 60 3d a9 a2 cb bd
       0.03131236 0.05671949 0.054857735 -0.09943134
000210 a1 de 0e 3d 2e e2 6b 3d 52 e0 d3 bc 55 47 8e 3d
       0.034880284 0.05758875 -0.0258638 0.06947199
000220 f9 d0 8e bc 66 e9 ac bd 10 f6 f7 bd 73 c5 b5 bd
       -0.01743363 -0.08442955 -0.121074796 -0.08875551
000230 3b f0 03 3c 0c 24 66 bd 66 06 9a bd b6 87 7d 3d
       0.008052881 -0.05618672 -0.07520752 0.061897002
000240 ca 95 c2 3b bc 04 d9 3d 03 61 ae 3b 7a 37 cc 3d
       0.0059382664 0.10596606 0.0053216233 0.09971519
000250 a3 94 7a bd e4 5c 85 3b 38 70 aa 3d 89 a9 13 3d
       -0.061176907 0.0040699113 0.08322185 0.036050353
000260 7a 20 52 bc 94 f3 9f bd 02 1e e7 3d f8 9c 8f bd
       -0.012825126 -0.07810131 0.112850204 -0.07012361
000270 6d 78 94 bd 95 b4 ca bd 20 94 66 bc 7c 24 57 3d
       -0.07249532 -0.098977245 -0.014073402 0.05252503
000280 c7 ee e8 bc 37 84 13 3d f8 d9 b8 3c aa d7 ab bd
       -0.02843417 0.03601476 0.022564873 -0.08390744
000290 12 a7 d1 3d 87 c4 c3 bd 6a 09 0a bc 08 d0 56 3c
       0.10236944 -0.09558969 -0.008425096 0.013111122
0002a0 dc d0 c7 bd 04 e2 1c 3d bc a7 f2 bd 5c 4a 5a bd
       -0.09756634 0.038301483 -0.11848399 -0.05329357
0002b0 6b 44 04 be 13 f2 01 3d 03 61 5e 3d a5 d9 8c bd
       -0.12916724 0.031725 0.054291736 -0.0687745
0002c0 52 52 de bd 9b 18 5e bc 40 f3 5d 3c 7b 01 01 be
       -0.10855545 -0.013555671 0.013546765 -0.12598221
0002d0 46 9c 59 bd cf ec 11 bd 0d a4 06 3d c1 2f 43 bd
       -0.05312755 -0.03562623 0.032871295 -0.047652964
0002e0 62 9e e4 bd 0b 2e f2 3c aa 13 9a 3d 02 bd 7c bd
       -0.111630216 0.02956297 0.07523282 -0.06170369
0002f0 b5 d2 91 bd 18 69 a9 3d bf 88 db bc 0f 11 18 3d
       -0.07120267 0.08271998 -0.026798604 0.037125643
000300 0d 15 bd 3d de f6 21 3d 91 11 95 bd f7 0b 92 bd
       0.09232531 0.03954207 -0.07278741 -0.07131188
000310 96 a7 f2 3b 07 e3 e5 bd 31 be 06 3d 1b 7d ca 3d
       0.0074052317 -0.11224943 0.032896224 0.09887143
000320 d7 e6 e1 3b 03 99 0d be 1c 03 11 bd af ec 91 bd
       0.0068939733 -0.138279 -0.035403356 -0.07125222
000330 f5 d4 ef bd b4 a2 c1 bd af be a5 bd f8 51 e6 3d
       -0.1171054 -0.09454861 -0.08093011 0.11246103
000340 b5 30 8d 3d 93 2e e7 3d 57 df 91 bd cf 1e cb 3c
       0.06894056 0.1128818 -0.07122677 0.024794964
000350 82 58 cf bd 67 3c db 3a be f0 80 bd 8b fb 97 3d
       -0.101243034 0.0016726375 -0.06295918 0.07421025
000360 87 83 bd bd d7 18 b3 3d b3 61 96 3c ec 16 dc 3d
       -0.092536025 0.08744972 0.018357133 0.107465595
000370 47 46 19 3d f4 a5 1e be de 13 b2 3c ee cb a7 39
       0.037420537 -0.15492994 0.021737989 0.00032004662
000380 f5 37 b6 bd 92 9d 47 3d 89 c1 52 bc b9 1b 1e 3d
       -0.08897392 0.048734255 -0.012863525 0.038600657
000390 0a ff d7 3d 70 32 bc 3d 6e 6e 8b 3d ae 80 8e 3b
       0.10546692 0.09189308 0.06808172 0.004348836
0003a0 f4 70 ba bd bb 60 19 3d 98 69 f1 bd 98 1f 48 3c
       -0.09103575 0.037445765 -0.117877185 0.012214564
0003b0 ba 13 0f 3b 66 a9 55 bd 57 4a 11 bd 5d d7 1d 3d
       0.0021831826 -0.052163504 -0.035471287 0.038535465
0003c0 1f a7 00 3d 87 46 d4 3c c7 35 0d bd 89 94 dd 3c
       0.03140938 0.025912536 -0.034475114 0.027048366
0003d0 f4 5b 95 3d 4a 6a f1 3b 71 6a 46 3d 44 e9 2b bb
       0.07292929 0.007367407 0.048441354 -0.0026231566
0003e0 dd b0 bf bc 09 b0 a1 3c 9a 12 66 bd a7 29 34 3b
       -0.023399765 0.01973726 -0.056170084 0.0027490647
0003f0 d2 78 25 bd 04 91 82 bc 1b a7 0c 3d 00 ba eb bc
       -0.040398426 -0.01593829 0.03433905 -0.028775215

layers.3.bias f4 [32]
000000 0c 5a e3 3d b2 8d ef bc e6 0e cd bd 62 43 13 bd
       0.111011595 -0.02924237 -0.10012607 -0.035952933
000010 82 26 31 3c 9c ee 9a 38 40 49 82 3d 0b 50 b8 bd
       0.010812404 7.387737e-05 0.063616276 -0.08999642
000020 df 64 74 bd d3 49 c5 bd c0 64 ad 3c 39 a9 9c 3d
       -0.05966651 -0.096332215 0.021166205 0.07649464
000030 34 6c 48 3c d7 f4 e4 bd 0e bf 41 3c 85 31 cc 3d
       0.012232829 -0.11179512 0.011825336 0.099703826
000040 71 3f c1 bd 0d 79 65 bd 6b 8d 0d bb db 0c f2 3c
       -0.094359286 -0.056023646 -0.0021599184 0.029547146
000050 c9 38 06 3d 55 fd 95 bc 99 15 4f bd b6 68 45 bb
       0.032769 -0.018309275 -0.050557707 -0.0030122227
000060 7b 84 97 3d e4 5c cd 3d 7e bf 31 bd ec c1 a7 bc
       0.073983155 0.10027483 -0.04339551 -0.020478211
000070 b1 0c 3d 3c 30 ca ab bd 8e 99 3c bd 75 e2 cb 3d
       0.01153867 -0.083881736 -0.04604488 0.099553026

layers.5.weight f4 [10, 32]
000000 71 6b f8 3d a1 98 3f 3d 13 b7 26 be 56 20 0a be
       0.12129868 0.046776418 -0.16280775 -0.13488898
000010 09 00 c2 3d 19 eb 1b bd b8 8b 0c 3d 3f 8a 2d be
       0.09472663 -0.038066003 0.034312934 -0.16947268
000020 fe cf 43 bc 9c af 01 be 91 70 31 3e d4 6a 30 3d
       -0.011951445 -0.12664646 0.17328097 0.04307063
000030 75 12 25 3e b2 f1 23 be 01 98 da 3d 38 8b 52 bd
       0.16120322 -0.16010168 0.10673524 -0.0514023
000040 59 d3 5c bd 10 54 a5 bd 83 e6 b5 bd c5 d6 43 3d
       -0.053912494 -0.08072674 -0.08881857 0.047812242
000050 26 4a 9d bd 5e 11 87 bc 38 6f d2 3d db d8 1a be
       -0.07680158 -0.016487774 0.102751195 -0.15121786
000060 ce 60 82 3d c7 8f 0b 3e 39 22 2a be 65 2b 57 bd
       0.0636612 0.13629065 -0.16614617 -0.05253162
000070 b3 71 04 3d 4c 59 a3 bd 95 74 bf bb 8f d6 65 3d
       0.032334995 -0.079760164 -0.005842755 0.056112822
000080 c4 e5 52 bd 13 36 be bd 42 da 2c 3e a0 7a 8b bd
       -0.051488653 -0.092876576 0.16880134 -0.06810498
000090 91 b9 19 3e 43 f1 36 3d 10 81 73 bb f7 f5 59 3d
       0.15012194 0.04466368 -0.0037155785 0.053213086
0000a0 43 71 35 3e 74 8f 77 bd 0f 40 e5 bd d1 61 0c be
       0.17718987 -0.060439542 -0.11193859 -0.13709189
0000b0 cf 4a 3e 3c cd 98 cf bd 4c 6d 0b 3d b0 5c 21 3d
       0.011614515 -0.10136566 0.03403978 0.039395034
0000c0 12 50 8f bd ce 15 12 bd 9a cc eb bc fa 6b 22 be
       -0.06997694 -0.035665326 -0.028784085 -0.15861502
0000d0 91 c9 2d 3e 70 15 7c 3c 8e b1 b6 3c 76 58 ae bc
       0.16971423 0.0153859705 0.022301462 -0.021282416
0000e0 9f 42 1c 3d 8d 92 24 3d b0 a4 16 be fd f5 df bd
       0.038149472 0.040178824 -0.14711261 -0.109355904
0000f0 99 4a 95 3c 5e c1 7a 3d f3 c3 18 3d 01 c0 e7 bc
       0.018224047 0.061219566 0.037296247 -0.028289797
000100 38 1e 14 3e 62 b8 2e be 0d 97 2a be c6 e1 1a be
       0.14464653 -0.17062524 -0.16659184 -0.15125188
000110 35 a4 d4 bc b9 58 a6 3c c3 19 12 bd 12 d2 af bd
       -0.025957206 0.020305978 -0.0356691 -0.085849896
000120 b3 56 10 3e 17 5c 16 bd 60 c6 fd bb fb e7 19 be
       0.14095573 -0.036708917 -0.0077445954 -0.150299
000130 04 fb 92 3d 45 01 39 bd be 44 23 3d 9d 60 87 bd
       0.07176784 -0.045167226 0.03986048 -0.066102244
000140 b7 61 35 3e b4 e0 35 be 17 be f5 3d 90 8e 5d bd
       0.17713057 -0.17761499 0.119991474 -0.054091036
000150 59 eb eb bd 5c 00 f3 bd 42 60 25 3b 06 62 26 be
       -0.115194984 -0.11865303 0.0025234376 -0.1624833
000160 ab b4 9d bd e7 a7 ef 3d 41 5c 0e be 82 2b d3 bd
       -0.07700475 0.11701947 -0.1390238 -0.10311033
000170 c5 22 f7 3c 2a 36 0f 3e b8 fd 43 bc 8b f0 85 bd
       0.030167947 0.13985506 -0.011962347 -0.065400206
000180 ab 60 f1 3d 40 9f cd bc 5c e7 30 3e fd 99 bc bb
       0.11786016 -0.02510035 0.17275757 -0.0057556615
000190 95 35 94 bd 4f 31 c8 bc 8b 87 66 3c a2 e0 19 3e
       -0.072367825 -0.024437575 0.014070402 0.15027097
0001a0 80 a2 48 bd 71 29 07 3e 90 ea dc bd 85 5a 76 bc
       -0.048983097 0.13199402 -0.10786927 -0.01503623
0001b0 95 34 78 bc 62 cc 60 bc b2 65 de bd 9e df b4 3c
       -0.015149255 -0.013720604 -0.108592406 0.022079285
0001c0 9d d7 87 bc 85 31 eb 3c 4a 52 94 bd 07 72 ea 3d
       -0.016582305 0.028710136 -0.07242258 0.1144753
0001d0 42 bd 18 3c ca 92 a9 bc 63 02 01 be 45 bd 18 3d
       0.009322466 -0.020699877 -0.12598567 0.037289876
0001e0 4d e5 a3 bc 78 e8 20 3d a1 c9 07 3e d0 f2 93 3b
       -0.0200068 0.0392842 0.13260509 0.0045150295
0001f0 9c fb 18 3e f2 cd b6 3d ee a7 f4 3c 59 f7 2e 3e
       0.14939731 0.08926 0.029865231 0.17086543
000200 a4 d9 3c bd 7b da 09 bc 29 19 17 3e 86 0e 66 bd
       -0.046105996 -0.008413906 0.14755692 -0.056166194
000210 14 12 1e be bf 72 f2 bc 92 2a d2 3c 51 f0 f2 bd
       -0.15436584 -0.02959573 0.025655065 -0.11862243
000220 66 9b 81 bd 82 22 d5 3b 82 7b e4 3c 67 44 d0 bc
       -0.06328468 0.006504358 0.027890924 -0.025423242
000230 2f 83 0b 3e 4e 9a 35 3e ea c0 f5 3d 73 b3 1a 3c
       0.13624261 0.17734644 0.11999686 0.009442198
000240 55 f8 00 3e f1 1f e8 3d 24 73 97 bb 6d 53 01 be
       0.12594731 0.11334217 -0.00462188 -0.1262948
000250 b1 cd 1d 3e ce 78 07 bd 71 39 6b 3e 84 0a 0a 3d
       0.15410496 -0.033074193 0.22971131 0.033701435
000260 65 8c 2f bd 6d 2e cb 3c 39 84 08 be 7e d6 f0 bd
       -0.0428585 0.024802411 -0.13331689 -0.11759661
000270 fd 18 a2 bd b7 70 ec 3d 6e 8b 02 be 11 96 c8 3d
       -0.079149224 0.11544936 -0.127485 0.09794248
000280 ee 47 a8 bd d6 c0 7b bb d6 cd 33 3d c4 44 a1 bd
       -0.082168445 -0.00384145 0.043897472 -0.07874444
000290 f1 5a 42 3e d1 b9 81 bd 85 e6 b5 bd 08 a5 33 3e
       0.18980004 -0.0633427 -0.08881859 0.17543423
0002a0 7b 8f 3e 3c f0 e0 11 be 72 91 59 3d 13 c9 0d 3e
       0.011630888 -0.14245963 0.053117223 0.13846235
0002b0 33 b7 68 3d 2b 5f 39 bd e5 ff ce 3d ce c5 dd 3d
       0.056815337 -0.045256775 0.10107402 0.10828744
0002c0 f2 8f 15 3e 81 dd 9c 3d de 21 4f bd 25 24 31 3d
       0.14605692 0.07659436 -0.050569408 0.04324736
0002d0 5b 43 9f 3d ce 49 9f bc 23 c9 14 bd 1e 5e fa 3d
       0.07776519 -0.019444373 -0.03632463 0.12224983
0002e0 a5 df a3 bc 69 56 02 3d f6 ee 1f be 09 fb 19 bd
       -0.020004103 0.03182069 -0.156185 -0.03759292
0002f0 53 86 94 bd 2b 1d 5e bd 45 85 85 bd 0c f2 10 3c
       -0.07252183 -0.054227035 -0.0651956 0.008846771
000300 52 4e a4 bd 4c 5d ac bd 7f 00 f6 3c 4a 9e 66 3d
       -0.08022751 -0.084162325 0.030029533 0.0563033
000310 9e 70 35 bd 84 95 2b be 08 78 0f 3d 58 a8 9e bd
       -0.044296853 -0.16756254 0.03502658 -0.07746953
000320 ad 53 b3 bc 1b e8 d5 bd 74 e0 e5 3d 39 78 93 bc
       -0.021890486 -0.10444661 0.11224452 -0.018001663
000330 ec 2b 33 bc 99 f1 30 be c4 f1 e6 3d e6 9b 22 3e
       -0.010935765 -0.17279662 0.11276582 0.15879783
000340 8d 23 10 be 18 e5 21 3e 5d dd 9f 3d 09 93 91 bd
       -0.14076062 0.15810049 0.078058936 -0.07108123
000350 91 fa 47 bc ec ed 1a 3e 6d fd 10 bd 97 48 c3 3d
       -0.012205736 0.15129822 -0.035397936 0.0953533
000360 b9 7b 86 bc 79 68 97 3d f6 a2 ec bd 30 c7 4a be
       -0.016416417 0.073929735 -0.1155452 -0.19802547
000370 30 30 2f be 2f 5b d3 3c 2d f9 06 3e b8 12 ad 3d
       -0.17108226 0.025800316 0.1318099 0.08450836
000380 52 2f 6a 3d 9e 83 e0 3d 0a 0a 07 be 65 32 75 3d
       0.057174034 0.10962604 -0.13187423 0.059862513
000390 93 74 4e bd 1a 35 35 3e 2f 8b 18 3e 5a dd a0 bb
       -0.050404143 0.17696038 0.14896844 -0.0049091997
0003a0 d8 b0 72 3d 65 57 bd bd f8 08 3f 3d aa 85 a9 3d
       0.059250683 -0.09245185 0.046639413 0.082774475
0003b0 02 fc 29 3d 42 c3 37 bd a1 1c 03 be a7 df d3 bd
       0.0415001 -0.044863947 -0.1280389 -0.10345393
0003c0 3a 19 a3 bd ba 3a 15 3c ad 04 de bc 6f f2 a3 bc
       -0.07963796 0.00910824 -0.027101839 -0.020013062
0003d0 5b dc 53 3d c4 28 64 bd 2d 4e ea 3c 7e ee 36 bb
       0.05172382 -0.05570294 0.02860173 -0.0027913149
0003e0 6c 94 f2 bc ab 84 38 bd f7 73 2a be 7f cb 3f 3c
       -0.029611789 -0.045048397 -0.166458 0.011706232
0003f0 40 01 35 bd 20 44 ec bc ff e5 6d 3d 8e a2 2c bd
       -0.044190645 -0.028841078 0.05808067 -0.04214721

layers.5.bias f4 [10]
000000 4c 6d 45 be 94 6e 8e 3d e1 80 33 be dd aa 96 ba
       -0.19279975 0.06954685 -0.17529632 -0.0011495013
000010 4b 5e 81 3d fc c6 ec bd 4e 89 93 3d 95 10 21 be
       0.06316813 -0.11561391 0.07203923 -0.15728982
000020 57 b1 95 bd f5 48 0f be
       -0.073092155 -0.13992675

momentum_buffer f4 [64, 784]
000000 00 00 00 00 00 00 00 00 00 00 00 00 00 00 00 00
       0.0 0.0 0.0 0.0
000010 00 00 00 00 00 00 00 00 00 00 00 00 00 00 00 00
       0.0 0.0 0.0 0.0
000020 00 00 00 00 00 00 00 00 00 00 00 00 00 00 00 00
       0.0 0.0 0.0 0.0
000030 00 00 00 00 00 00 00 00 00 00 00 00 00 00 00 00
       0.0 0.0 0.0 0.0
000040 00 00 00 00 00 00 00 00 00 00 00 00 00 00 00 00
       0.0 0.0 0.0 0.0
000050 00 00 00 00 00 00 00 00 00 00 00 00 00 00 00 00
       0.0 0.0 0.0 0.0
000060 00 00 00 00 00 00 00 00 00 00 00 00 00 00 00 00
       0.0 0.0 0.0 0.0
000070 00 00 00 00 00 00 00 00 00 00 00 00 00 00 00 00
       0.0 0.0 0.0 0.0
000080 00 00 00 00 00 00 00 00 00 00 00 00 00 00 00 00
       0.0 0.0 0.0 0.0
000090 00 00 00 00 00 00 00 00 00 00 00 00 00 00 00 00
       0.0 0.0 0.0 0.0
0000a0 00 00 00 00 00 00 00 00 00 00 00 00 00 00 00 00
       0.0 0.0 0.0 0.0
0000b0 00 00 00 00 00 00 00 00 00 00 00 00 00 00 00 00
       0.0 0.0 0.0 0.0
0000c0 00 00 00 00 00 00 00 00 00 00 00 00 00 00 00 00
       0.0 0.0 0.0 0.0
0000d0 00 00 00 00 00 00 00 00 00 00 00 00 00 00 00 00
       0.0 0.0 0.0 0.0
0000e0 00 00 00 00 00 00 00 00 00 00 00 00 00 00 00 00
       0.0 0.0 0.0 0.0
0000f0 00 00 00 00 00 00 00 00 00 00 00 00 00 00 00 00
       0.0 0.0 0.0 0.0
000100 00 00 00 00 00 00 00 00 04 00 00 80 04 00 00 80
       0.0 0.0 -6e-45 -6e-45
000110 04 00 00 80 04 00 00 80 04 00 00 80 04 00 00 80
       -6e-45 -6e-45 -6e-45 -6e-45
000120 04 00 00 80 04 00 00 80 04 00 00 80 04 00 00 80
       -6e-45 -6e-45 -6e-45 -6e-45
000130 00 00 00 00 00 00 00 00 00 00 00 00 00 00 00 00
       0.0 0.0 0.0 0.0
000140 00 00 00 00 00 00 00 00 00 00 00 00 00 00 00 00
       0.0 0.0 0.0 0.0
000150 00 00 00 00 00 00 00 00 00 00 00 00 00 00 00 00
       0.0 0.0 0.0 0.0
000160 00 00 00 00 00 00 00 00 00 00 00 00 00 00 00 00
       0.0 0.0 0.0 0.0
000170 04 00 00 80 04 00 00 80 04 00 00 80 04 00 00 80
       -6e-45 -6e-45 -6e-45 -6e-45
000180 04 00 00 80 04 00 00 80 04 00 00 80 04 00 00 00
       -6e-45 -6e-45 -6e-45 6e-45
000190 04 00 00 00 04 00 00 00 04 00 00 00 04 00 00 00
       6e-45 6e-45 6e-45 6e-45
0001a0 04 00 00 00 04 00 00 00 00 00 00 00 00 00 00 00
       6e-45 6e-45 0.0 0.0
0001b0 00 00 00 00 00 00 00 00 00 00 00 00 00 00 00 00
       0.0 0.0 0.0 0.0
0001c0 00 00 00 00 00 00 00 00 00 00 00 00 00 00 00 00
       0.0 0.0 0.0 0.0
0001d0 00 00 00 00 00 00 00 00 00 00 00 00 04 00 00 00
       0.0 0.0 0.0 6e-45
0001e0 04 00 00 00 04 00 00 00 04 00 00 80 04 00 00 00
       6e-45 6e-45 -6e-45 6e-45
0001f0 04 00 00 00 04 00 00 00 04 00 00 00 04 00 00 00
       6e-45 6e-45 6e-45 6e-45
000200 04 00 00 00 04 00 00 00 04 00 00 00 04 00 00 00
       6e-45 6e-45 6e-45 6e-45
000210 04 00 00 00 04 00 00 00 04 00 00 00 04 00 00 80
       6e-45 6e-45 6e-45 -6e-45
000220 00 00 00 00 00 00 00 00 00 00 00 00 00 00 00 00
       0.0 0.0 0.0 0.0
000230 00 00 00 00 00 00 00 00 00 00 00 00 00 00 00 00
       0.0 0.0 0.0 0.0
000240 00 00 00 00 00 00 00 00 04 00 00 00 04 00 00 00
       0.0 0.0 6e-45 6e-45
000250 04 00 00 00 04 00 00 00 04 00 00 00 04 00 00 00
       6e-45 6e-45 6e-45 6e-45
000260 04 00 00 00 04 00 00 00 04 00 00 00 04 00 00 00
       6e-45 6e-45 6e-45 6e-45
000270 04 00 00 00 04 00 00 00 04 00 00 00 04 00 00 00
       6e-45 6e-45 6e-45 6e-45
000280 04 00 00 00 04 00 00 00 04 00 00 00 04 00 00 00
       6e-45 6e-45 6e-45 6e-45
000290 04 00 00 00 04 00 00 00 00 00 00 00 00 00 00 00
       6e-45 6e-45 0.0 0.0
0002a0 00 00 00 00 00 00 00 00 00 00 00 00 00 00 00 00
       0.0 0.0 0.0 0.0
0002b0 04 00 00 00 04 00 00 00 04 00 00 00 04 00 00 00
       6e-45 6e-45 6e-45 6e-45
0002c0 04 00 00 00 04 00 00 00 04 00 00 00 04 00 00 00
       6e-45 6e-45 6e-45 6e-45
0002d0 04 00 00 00 04 00 00 00 04 00 00 00 04 00 00 00
       6e-45 6e-45 6e-45 6e-45
0002e0 04 00 00 00 04 00 00 00 04 00 00 00 04 00 00 00
       6e-45 6e-45 6e-45 6e-45
0002f0 04 00 00 00 04 00 00 00 04 00 00 00 04 00 00 00
       6e-45 6e-45 6e-45 6e-45
000300 04 00 00 00 04 00 00 00 00 00 00 00 00 00 00 00
       6e-45 6e-45 0.0 0.0
000310 00 00 00 00 00 00 00 00 00 00 00 00 00 00 00 00
       0.0 0.0 0.0 0.0
000320 04 00 00 00 04 00 00 00 04 00 00 00 04 00 00 00
       6e-45 6e-45 6e-45 6e-45
000330 04 00 00 00 04 00 00 00 04 00 00 00 04 00 00 00
       6e-45 6e-45 6e-45 6e-45
000340 04 00 00 00 04 00 00 00 04 00 00 00 04 00 00 00
       6e-45 6e-45 6e-45 6e-45
000350 04 00 00 00 04 00 00 00 04 00 00 00 04 00 00 00
       6e-45 6e-45 6e-45 6e-45
000360 04 00 00 00 04 00 00 00 04 00 00 00 04 00 00 00
       6e-45 6e-45 6e-45 6e-45
000370 04 00 00 80 04 00 00 80 04 00 00 80 00 00 00 00
       -6e-45 -6e-45 -6e-45 0.0
000380 00 00 00 00 00 00 00 00 00 00 00 00 00 00 00 00
       0.0 0.0 0.0 0.0
000390 04 00 00 00 04 00 00 00 04 00 00 00 04 00 00 00
       6e-45 6e-45 6e-45 6e-45
0003a0 04 00 00 00 04 00 00 00 04 00 00 00 04 00 00 00
       6e-45 6e-45 6e-45 6e-45
0003b0 04 00 00 00 04 00 00 00 04 00 00 00 04 00 00 00
       6e-45 6e-45 6e-45 6e-45
0003c0 04 00 00 00 04 00 00 00 04 00 00 00 04 00 00 00
       6e-45 6e-45 6e-45 6e-45
0003d0 04 00 00 00 04 00 00 00 04 00 00 00 04 00 00 00
       6e-45 6e-45 6e-45 6e-45
0003e0 04 00 00 80 04 00 00 80 04 00 00 80 00 00 00 00
       -6e-45 -6e-45 -6e-45 0.0
0003f0 00 00 00 00 00 00 00 00 00 00 00 00 00 00 00 00
       0.0 0.0 0.0 0.0

momentum_buffer f4 [64]
000000 04 00 00 00 ed 90 19 b9 10 c4 47 b2 03 86 b1 22
       6e-45 -0.00014645206 -1.1627904e-08 4.8117837e-18
000010 a6 cb 0b 39 25 42 a6 b9 f6 f8 be 39 74 ed 7a ba
       0.00013331938 -0.0003171127 0.00036425114 -0.00095721264
000020 24 c2 df b3 89 cf 73 38 6e f7 1c b9 ed 71 2d 39
       -1.0419561e-07 5.8128997e-05 -0.00014969494 0.00016541006
000030 98 46 eb 39 cb 82 62 b9 cb 32 ae 35 04 00 00 00
       0.0004487529 -0.00021601764 1.2978793e-06 6e-45
000040 c6 3e 22 38 6b f4 95 37 aa 3b 44 b9 8b 4a 49 ba
       3.8682272e-05 1.7876e-05 -0.00018714243 -0.0007678649
000050 4c ec 33 39 f2 26 8f a4 c8 b5 0d 38 80 d8 9d b7
       0.00017158798 -6.208234e-17 3.3786317e-05 -1.8816674e-05
000060 d4 05 11 ba 04 00 00 00 0a 2d 37 a9 04 00 00 00
       -0.00055321795 6e-45 -4.0673228e-14 6e-45
000070 b6 91 cb b7 20 7a 64 b8 04 00 00 00 0d e3 32 b6
       -2.4267338e-05 -5.4473174e-05 6e-45 -2.6656228e-06
000080 91 03 3e 39 ae 20 ee 38 42 bf 33 ba df 28 66 39
       0.0001812114 0.000113548114 -0.0006856808 0.00021949735
000090 93 26 cb b1 04 00 00 00 21 c0 80 b7 e5 73 22 3a
       -5.912463e-09 6e-45 -1.5348256e-05 0.0006197079
0000a0 a4 30 22 21 04 00 00 00 64 12 4c ba dd dc ac 38
       5.495211e-19 6e-45 -0.0007784723 8.242738e-05
0000b0 1c b4 01 3b 04 00 00 00 d1 25 73 3a 04 00 00 00
       0.0019791191 6e-45 0.00092753494 6e-45
0000c0 04 00 00 00 c8 5b 7b 3a cc 5c fd 36 ae 47 22 b9
       6e-45 0.00095885666 7.5507905e-06 -0.00015476227
0000d0 3d d1 f3 34 e5 1f d1 38 04 55 a5 39 05 3c 67 3a
       4.5414518e-07 9.9718374e-05 0.00031534594 0.0008820894
0000e0 71 30 bc 2d 04 00 00 00 e3 75 d8 91 5e 7e e7 b8
       2.1394638e-11 6e-45 -3.4151444e-28 -0.00011038476
0000f0 d3 98 c3 39 bc 14 9c b7 bb 86 05 b9 2c 3d 79 b9
       0.0003730716 -1.8606304e-05 -0.0001273406 -0.00023769279

momentum_buffer f4 [32, 64]
000000 04 00 00 00 7b a7 15 3c fe 76 3d 33 43 2a 4f a5
       6e-45 0.009134169 4.4113214e-08 -1.7968707e-16
000010 2d f4 4d 3c af f5 51 3c ba 6a dc bc dc d1 d4 3e
       0.012570423 0.012814923 -0.02690636 0.4156636
000020 79 33 22 35 70 14 c5 3e 52 a0 33 3e 60 3a 92 bc
       6.0424605e-07 0.38492155 0.17541626 -0.017850101
000030 55 32 74 3f 83 e7 90 3d 0a fd ae b6 04 00 00 00
       0.953893 0.07075407 -5.2150617e-06 6e-45
000040 0e 24 0f bb 5f 66 86 bb f4 69 4a 3a 6e 93 9c 3d
       -0.0021841559 -0.004101559 0.0007721477 0.076453075
000050 14 cb d9 bd 04 00 00 00 15 71 02 3d 4e 35 ec b8
       -0.10634437 6e-45 0.031846125 -0.00011263286
000060 f5 11 6b 3f 04 00 00 00 04 4d f8 00 04 00 00 00
       0.91824275 6e-45 2.2802831e-38 6e-45
000070 44 13 60 3e b7 f1 71 3f 04 00 00 00 74 57 cd 37
       0.21882349 0.9450945 6e-45 2.4478628e-05
000080 46 b1 1b 3e c5 12 14 3e e7 00 61 3d 72 26 0e 3e
       0.15204343 0.14460285 0.0549325 0.13881853
000090 41 8a 95 0c 04 00 00 80 06 5a 97 3b 02 90 b7 3d
       2.3040293e-31 -6e-45 0.004618886 0.08963014
0000a0 04 00 00 80 04 00 00 00 7d e5 e5 3e c9 e9 cc 3d
       -6e-45 6e-45 0.44901648 0.100055285
0000b0 cc eb ee bd 04 00 00 00 60 a8 0f 3b 04 00 00 00
       -0.116660684 6e-45 0.0021920428 6e-45
0000c0 04 00 00 80 ec 88 81 3d c5 23 d9 39 76 ef a9 3e
       -6e-45 0.06324944 0.00041416116 0.33190507
0000d0 e0 c3 2d 35 8e 2f bb 3a 00 4e d5 bb e2 1a 2c bd
       6.473256e-07 0.001428114 -0.0065095425 -0.042017825
0000e0 cf 3f d3 30 04 00 00 80 04 00 00 00 09 b1 9e 3b
       1.5370406e-09 -6e-45 6e-45 0.0048428816
0000f0 28 f1 c0 3c 08 ce 7f 3c 83 09 cd bc 5f c8 4e bd
       0.023552492 0.0156130865 -0.02502895 -0.050484058
000100 04 00 00 00 e3 7b 45 3b 04 00 00 80 04 00 00 80
       6e-45 0.0030133657 -6e-45 -6e-45
000110 e1 4c 59 b7 f3 8f db b2 84 08 2d b9 49 e2 51 b9
       -1.2952108e-05 -2.5560416e-08 -0.00016501738 -0.00020016091
000120 04 00 00 80 79 d1 58 3b 3c 5f 9c 3b d2 41 a5 33
       -6e-45 0.003308384 0.004772095 7.695384e-08
000130 48 02 f0 3a 88 fb dc 3b 04 00 00 80 04 00 00 00
       0.0018311227 0.006743852 -6e-45 6e-45
000140 04 00 00 00 67 d1 c8 b0 84 22 69 37 f5 b9 4c b0
       6e-45 -1.4611431e-09 1.38959185e-05 -7.447903e-10
000150 b6 ca d1 3a 04 00 00 00 63 03 47 39 3f 54 0b b8
       0.0016005847 6e-45 0.0001897938 -3.3218643e-05
000160 52 a0 74 3b 04 00 00 00 04 00 00 80 04 00 00 00
       0.0037327004 6e-45 -6e-45 6e-45
000170 fe 78 f7 3a 43 a5 99 3b 04 00 00 80 ef 1e b8 87
       0.0018880663 0.00468889 -6e-45 -2.7703424e-34
000180 2e de 4a 36 60 72 29 3a 9d 0c e9 3a 01 93 0f 3a
       3.0229671e-06 0.00064638816 0.0017780248 0.00054769224
000190 04 00 00 00 04 00 00 00 5e d7 a6 23 1f 76 c3 3b
       6e-45 6e-45 1.8088968e-17 0.005965009
0001a0 04 00 00 80 04 00 00 00 e1 9d 46 36 2a b7 cb 3b
       -6e-45 6e-45 2.9596197e-06 0.006216903
0001b0 4b e1 62 39 04 00 00 00 2e 17 b2 b2 04 00 00 80
       0.00021636968 6e-45 -2.0732468e-08 -6e-45
0001c0 04 00 00 00 25 4e 9e 3b 59 d1 a6 b0 87 10 5e 3b
       6e-45 0.004831093 -1.213759e-09 0.0033884363
0001d0 9c 51 7b b5 76 7f 30 3b 5e fa a8 3a 0b c1 dd 30
       -9.3623544e-07 0.0026931441 0.0012891998 1.6134732e-09
0001e0 04 00 00 00 04 00 00 00 04 00 00 00 2e a5 a4 31
       6e-45 6e-45 6e-45 4.791807e-09
0001f0 a4 87 c2 38 29 7e 7b 34 04 00 00 00 95 a1 ea ba
       9.275906e-05 2.3422093e-07 6e-45 -0.0017900938
000200 00 00 00 00 72 67 16 3b a1 fd 5e ac 04 00 00 80
       0.0 0.0022949842 -3.168889e-12 -6e-45
000210 fd df 22 38 77 5e f5 b8 83 f3 4b b9 e0 8e 35 b9
       3.8832415e-05 -0.00011700106 -0.00019450304 -0.0001731473
000220 04 00 00 00 38 23 0b 39 48 d4 d1 3a 1a b3 c8 ae
       6e-45 0.00013269193 0.0016008699 -9.126762e-11
000230 da be dd 39 cb de 28 39 f2 f7 25 a8 04 00 00 00
       0.000422946 0.00016104725 -9.2131045e-15 6e-45
000240 fd 7d de aa b2 57 1d b8 cb 8f 07 b4 94 48 c3 b9
       -3.9522544e-13 -3.751339e-05 -1.2625166e-07 -0.00037247373
000250 7c b2 02 b9 55 f0 b5 a8 d1 e1 fd 38 0a 5d a6 37
       -0.00012464257 -2.0199264e-14 0.00012106042 1.9832067e-05
000260 b1 97 af 38 00 00 00 00 3b e3 c3 aa 04 00 00 00
       8.372905e-05 0.0 -3.479663e-13 6e-45
000270 de f1 51 b9 34 dd 8b b9 00 00 00 00 96 cd ea ad
       -0.00020021896 -0.00026676955 0.0 -2.6694019e-11
000280 a5 f6 28 b9 c9 b8 11 39 ac 7a 62 b9 cf fa 85 b6
       -0.00016113611 0.00013897115 -0.00021598738 -3.992907e-06
000290 00 00 00 00 04 00 00 80 90 aa 72 b8 a5 fe 49 b9
       0.0 -6e-45 -5.7856145e-05 -0.00019263716
0002a0 00 00 00 00 04 00 00 00 25 06 a4 b6 ca eb de 39
       0.0 6e-45 -4.888296e-06 0.00042518816
0002b0 02 80 27 b8 04 00 00 80 80 4f e9 b8 04 00 00 80
       -3.993512e-05 -6e-45 -0.00011125114 -6e-45
0002c0 04 00 00 00 d3 28 66 b9 5b 1e 08 b7 e5 b6 82 b6
       6e-45 -0.00021949717 -8.113299e-06 -3.8955936e-06
0002d0 41 c7 83 a5 51 12 9e 37 f1 ed a9 b8 56 2d df b8
       -2.2859897e-16 1.8843597e-05 -8.102868e-05 -0.00010641913
0002e0 04 00 00 00 04 00 00 00 04 00 00 00 3f 71 51 34
       6e-45 6e-45 6e-45 1.950584e-07
0002f0 8a 8c fe 35 25 93 09 39 11 19 01 35 2c b0 37 3b
       1.8965377e-06 0.00013120154 4.809272e-07 0.002802859
000300 04 00 00 00 a4 7e 42 bd 51 06 b9 ac 0b 57 29 a5
       6e-45 -0.047484055 -5.2587175e-12 -1.4687905e-16
000310 62 90 74 ba 0c 6e d2 b9 bf a0 ed bc e0 64 73 bd
       -0.0009329376 -0.00040136313 -0.029007314 -0.059422374
000320 04 00 00 00 1f ed 6d bb 97 5c 31 3b 0b 99 39 b9
       6e-45 -0.0036304665 0.0027063244 -0.00017699988
000330 e2 4f ef 39 60 98 02 ba 61 41 6f 9b 04 00 00 00
       0.0004564515 -0.0004981812 -1.9790742e-22 6e-45
000340 0d d4 99 30 d0 7c c9 35 3d fb ad b8 26 22 27 30
       1.1192484e-09 1.5011992e-06 -8.2960796e-05 6.0802774e-10
000350 c4 f3 e4 bc 04 00 00 00 69 5c 48 34 12 b9 02 37
       -0.027948268 6e-45 1.866007e-07 7.791694e-06
000360 88 73 10 ba 04 00 00 00 2c 97 6b 2d 04 00 00 80
       -0.00055103796 6e-45 1.339177e-11 -6e-45
000370 92 40 97 bd 3a be dc bc 04 00 00 80 d8 3a 1a 27
       -0.07385363 -0.026946176 -6e-45 2.1403692e-15
000380 db 80 15 bb 95 59 b3 bb b6 27 21 3a 8a 4e 86 bd
       -0.00228124 -0.0054733255 0.000614758 -0.06557949
000390 04 00 00 00 04 00 00 00 60 79 54 bb 6a d2 85 b6
       6e-45 6e-45 -0.0032420978 -3.9882043e-06
0003a0 04 00 00 00 04 00 00 00 c8 22 01 3b 71 af 56 bd
       6e-45 6e-45 0.001970457 -0.052413408
0003b0 4d 68 b4 bb 04 00 00 00 90 58 c6 bd 04 00 00 80
       -0.0055055977 6e-45 -0.09684861 -6e-45
0003c0 04 00 00 00 c0 9d 88 ba 79 31 ca b6 ac 12 d0 3b
       6e-45 -0.001042299 -6.0258285e-06 0.006349882
0003d0 b4 df cf 36 60 57 10 bd e7 e4 9d bd a9 58 88 bc
       6.195123e-06 -0.035239577 -0.07709675 -0.016643839
0003e0 04 00 00 00 04 00 00 00 04 00 00 00 df 9f 3e bb
       6e-45 6e-45 6e-45 -0.002908699
0003f0 ed 1b c3 bc 12 aa 7b bc ca 15 a2 b3 8a fb 33 bd
       -0.023817027 -0.015360372 -7.547676e-08 -0.04394106

momentum_buffer f4 [32]
000000 8c ab 57 3b 44 6e 2d 38 d6 ba 21 37 f0 c9 21 ba
       0.0032908646 4.1349107e-05 9.639849e-06 -0.00061717536
000010 f7 86 3c b8 31 c5 f8 ba a2 03 d5 38 99 1a 61 bb
       -4.494839e-05 -0.0018979666 0.00010157308 -0.0034348129
000020 81 a2 53 3b 23 80 b1 37 72 3b 89 bb 09 bc a8 ba
       0.0032292905 2.1159713e-05 -0.0041879946 -0.0012873422
000030 fa 31 79 ba 1e ca 2e ba 73 16 90 b5 c0 94 72 bb
       -0.0009506043 -0.0006667691 -1.073537e-06 -0.0037014931
000040 41 64 f1 36 b3 86 55 b9 91 e0 cf 3a f4 4d 69 b7
       7.194031e-06 -0.00020363442 0.0015859773 -1.3906032e-05
000050 83 1c 98 bb c6 21 48 3a 3c a5 d1 ba 1b 83 06 b8
       -0.0046420707 0.0007634427 -0.0015994678 -3.207019e-05
000060 c6 12 08 38 b6 20 ae b8 8d 7e cd b2 cd 39 cf 3a
       3.244241e-05 -8.3030594e-05 -2.392269e-08 0.0015810073
000070 e6 b0 93 3a 74 fe 65 3a 1b 1b bd b9 b3 0d 28 3b
       0.001126793 0.0008773573 -0.00036069084 0.002564293

momentum_buffer f4 [10, 32]
000000 0f 56 22 bd a7 b8 29 bb e6 3c cc 35 ba f5 45 37
       -0.039632853 -0.0025897415 1.5216908e-06 1.1799328e-05
000010 8e e4 2e 3a 9b 78 0b 3b 63 cf db b9 d3 7d e8 bc
       0.00066716305 0.0021281603 -0.0004192545 -0.02838031
000020 db e9 b6 bc 2b 65 20 37 20 ca 3b bf 13 31 51 bc
       -0.022328308 9.560298e-06 -0.73355293 -0.012768048
000030 dc 5a dc 39 77 93 44 be 51 65 82 32 c3 88 92 3c
       0.00042029365 -0.19196878 1.5180065e-08 0.017887479
000040 f9 75 8f b5 13 9d 0c 3b 5b dc 28 3c 72 69 18 3a
       -1.0688665e-06 0.0021455928 0.010306443 0.00058140524
000050 31 c1 6e 3c 08 18 81 3a ee 22 49 39 5a 77 61 36
       0.014572428 0.0009849081 0.00019181866 3.3597084e-06
000060 5b c9 ef 34 a0 0f c5 39 fa 44 21 36 0d 19 06 be
       4.4663724e-07 0.0003758641 2.403102e-06 -0.13095494
000070 84 ae 4b 3c 6e aa 44 39 39 b9 28 31 65 21 86 3a
       0.0124317445 0.00018755507 2.4552504e-09 0.0010233341
000080 d5 e3 4d 3e 73 63 9c 37 d4 9c d7 34 7c 4f 89 37
       0.20106442 1.8642959e-05 4.0160978e-07 1.6368685e-05
000090 07 22 a8 3d 10 94 0f bd 79 7d e3 35 28 c1 8b 3c
       0.08209615 -0.035053313 1.6949335e-06 0.017059878
0000a0 bc c4 26 bd 78 22 a2 3a b0 2f 0f bc 25 2e da 38
       -0.040714964 0.0012369892 -0.008739397 0.00010403645
0000b0 ee 7e 2a bb 98 ae 88 3c 1d ff 16 b8 88 e8 8a bc
       -0.0026015597 0.016684815 -3.600038e-05 -0.016956583
0000c0 58 6b 0d 35 ab e8 0d 34 cf cf 04 bd 46 d6 d4 3a
       5.26828e-07 1.3216292e-07 -0.032424744 0.0016238175
0000d0 bc 47 25 3e 57 b4 53 bc 8c 66 70 3c 53 aa ab 3a
       0.16140646 -0.012921414 0.014672887 0.0013097025
0000e0 bd 6c 6e 3a 6f 71 a2 3a c4 fb ea 31 83 35 76 bc
       0.0009095183 0.0012393425 6.8389188e-09 -0.015027407
0000f0 d2 aa b5 3c 39 fe 90 bb 28 21 56 34 9d 32 3c 3c
       0.02217618 -0.004424837 1.9942365e-07 0.0114866765
000100 0b 13 ba 3f dc 2c a7 35 0a 6a 84 38 75 d5 a7 3c
       1.4537061 1.2455525e-06 6.314002e-05 0.020487526
000110 9e 6b 17 bd 0c 51 21 3e c9 80 a4 b7 4a 63 20 3e
       -0.036967866 0.15753573 -1.9610294e-05 0.15662876
000120 3b 6f bc 3e 22 7c 71 38 0a d5 91 3d e0 d2 51 39
       0.36803612 5.7574485e-05 0.07120712 0.0002001035
000130 ea d0 d6 37 ad 00 a4 3d 0e 9b b1 36 24 7f 2f 3e
       2.5608071e-05 0.080079414 5.293062e-06 0.17138344
000140 9d e3 03 3a 47 dd 2f 37 64 9e 18 3e 04 52 ad 39
       0.00050311704 1.0482333e-05 0.14904171 0.00033058238
000150 7a 4a d6 3c da 16 fb bb 49 3e 8f 3b 7b 36 12 34
       0.02615856 -0.007662636 0.0043714386 1.361713e-07
000160 ce 78 6d b9 f3 13 a9 3b 44 b5 6c 2e 4a 63 44 3c
       -0.00022647085 0.005159849 5.3821184e-11 0.011986563
000170 a4 c3 b0 bd d4 9a da 3c 82 06 8b 33 f8 b1 61 39
       -0.086310655 0.026685156 6.473876e-08 0.0002152397
000180 76 6b 1a 3f 06 af 27 3a 60 ac 20 b8 ef 09 ac 3a
       0.6032022 0.0006396625 -3.830751e-05 0.0013125519
000190 84 0c f8 3b f5 bd 6b 3d b5 db b9 b7 6d 5f 0f 40
       0.0075698514 0.057554204 -2.2156028e-05 2.2401993
0001a0 10 fe 17 be e0 58 95 38 99 db af 3e 92 1d 7e 3a
       -0.14843011 7.121428e-05 0.34347227 0.00096937374
0001b0 64 c6 b3 3c 4d 7a 8e bd 8f cb 97 34 e1 90 34 3e
       0.021945186 -0.06956921 2.827405e-07 0.17633392
0001c0 99 1f 5e b9 47 bd 37 39 15 b8 56 3d d9 cc ae 3a
       -0.00021183341 0.00017522751 0.052421648 0.0013336196
0001d0 64 60 4a 3f 7e 10 96 3b 5a dd d3 39 ae 27 e4 38
       0.7905333 0.0045796027 0.00040409976 0.00010879278
0001e0 75 46 17 38 b7 a9 bd bd 56 e9 f9 35 bc aa 3b 3e
       3.6066824e-05 -0.09260886 1.8619855e-06 0.18326849
0001f0 1f 65 ab 3d 04 b0 f4 3c d7 c6 33 bc a0 93 44 3e
       0.08368897 0.029869087 -0.0109727 0.1919694
000200 7f d6 3a bd 1c a9 c3 36 01 03 a9 3a 83 2a eb 38
       -0.045614716 5.83114e-06 0.0012894572 0.00011213592
000210 42 f6 87 ba 95 c3 bf bd 1c f6 3d 3c 37 64 0a 3c
       -0.0010373073 -0.09363476 0.011594322 0.008446745
000220 bc e4 84 3a e2 29 84 b8 3e 9d d8 3e 3c aa c6 3a
       0.0010138969 -6.302052e-05 0.42307466 0.0015156935
000230 02 22 7b bd 82 89 71 3d 8f 89 05 37 8a cb 88 bd
       -0.06131173 0.05896903 7.959446e-06 -0.06679447
000240 55 27 5a 35 9e 6f 10 3b e3 e5 05 bd 46 fe 47 39
       8.1268564e-07 0.0022039185 -0.03268994 0.00019072843
000250 22 ac b9 be 58 04 15 bd 71 6c 0f be 40 d3 2d 33
       -0.3626414 -0.036381096 -0.14006211 4.0471832e-08
000260 80 ec b8 37 78 f9 7a 39 97 95 39 35 32 7e ec bd
       2.2044638e-05 0.00023934792 6.913555e-07 -0.11547507
000270 14 cf e7 b8 83 a8 39 3b ee 33 fb 34 ba 85 e6 38
       -0.0001105351 0.00283292 4.6790177e-07 0.00010992163
000280 d7 da dc be c3 3f 35 3a 82 d1 09 3a cb 4c b3 39
       -0.43135712 0.0006914103 0.00052573544 0.00034198756
000290 9e bf 42 bd 69 91 05 bc 88 c8 2f 38 60 c2 07 c0
       -0.04754602 -0.008152344 4.191001e-05 -2.1212387
0002a0 70 6d a3 bc d2 0d 9a ba 3c fc 6f bf d9 ee 41 3d
       -0.019949645 -0.0011753386 -0.93744254 0.047346924
0002b0 f7 3f 0b bc c4 9b 7e bc aa f1 06 34 0c ad 8b bf
       -0.008499137 -0.015540067 1.256764e-07 -1.0912185
0002c0 6c ad 3c 39 d4 38 e6 3a ee 98 41 ba 53 b2 48 bb
       0.00017993682 0.0017564544 -0.0007385154 -0.0030623868
0002d0 08 47 1f bf 07 3a 4a bd 5c ee 3f 39 3b 8c bf ba
       -0.6221776 -0.049371745 0.00018303975 -0.0014613935
0002e0 4e d8 4b ba 48 29 ef 37 48 53 a5 b3 c8 21 81 bd
       -0.00077760674 2.8510243e-05 -7.69856e-08 -0.063052714
0002f0 1d f9 80 bd 3e 29 9f ba c7 2c f5 3b 28 38 0b be
       -0.062975146 -0.0012143028 0.0074821445 -0.1359564
000300 5b c8 5c bd f7 c9 a8 34 ae e9 05 ba 5a fd ae 32
       -0.05390201 3.1439387e-07 -0.00051083684 2.0371477e-08
000310 5a 54 82 3b 0e f9 53 3b df 18 0a 39 64 7d 69 3e
       0.0039773406 0.0032344493 0.00013169971 0.22801739
000320 ae 89 d2 3d 98 38 00 b7 d4 cb 1b 3f 8b b1 63 3b
       0.102801666 -7.642571e-06 0.6085789 0.0034743275
000330 37 33 1b ba c3 a0 e0 39 1a 0d 67 32 3b 61 df 3e
       -0.00059204124 0.00042844386 1.3448949e-08 0.43628868
000340 67 bc 6e b5 f7 61 92 35 87 f8 c7 3d 80 81 61 39
       -8.893607e-07 1.0906359e-06 0.097642 0.00021505915
000350 d2 4a bd 3c 88 16 74 3d 2b 87 39 38 0f 8b 19 33
       0.023106966 0.0595918 4.4233322e-05 3.574956e-08
000360 8e 29 3b 34 64 28 13 3c 62 32 ce b6 fd 0b 1a bd
       1.743085e-07 0.008981798 -6.1451437e-06 -0.03760909
000370 7e 08 bb 3c 12 5e ae 3b 5d fd b0 2d dc de d5 ba
       0.022831198 0.0053212726 2.01214e-11 -0.0016317028
000380 3c bf 1e bd d2 66 00 3b 6c bf 4d b8 80 21 bb bc
       -0.038756594 0.0019592536 -4.9054084e-05 -0.022843122
000390 1b 34 1d 3c ad 7a db be 76 2c 83 3a 4a e8 0f bd
       0.009594942 -0.42867032 0.0010007757 -0.035133637
0003a0 6f b5 a8 3d 57 6a a8 b9 fb 96 fa bd 4a a0 d6 bc
       0.08237731 -0.00032122686 -0.122358285 -0.026199479
0003b0 1d a0 04 3c 15 49 30 be 0e 2f ba 37 35 d0 03 bd
       0.008094815 -0.17215379 2.219484e-05 -0.032180984
0003c0 66 b5 eb 35 42 a4 2b 39 15 70 a4 bd 23 bd 10 bb
       1.7561658e-06 0.00016369022 -0.080291905 -0.002208539
0003d0 95 99 9e 3d 96 0f ad 3a df 51 8d 3c e6 6c 16 38
       0.07744137 0.0013203498 0.017250953 3.5864206e-05
0003e0 d3 0c da 37 a3 65 ae b9 b3 d9 06 36 9e b0 d2 be
       2.5993597e-05 -0.00033263591 2.0094274e-06 -0.41150373
0003f0 7a 75 48 3c c9 0a 69 bd bd cd cb 36 d6 57 9a 39
       0.01223504 -0.05689505 6.0738225e-06 0.00029438612

momentum_buffer f4 [10]
000000 10 3c 62 bc 44 fd da 3b e6 dc 98 3c d4 a6 ee 3c
       -0.013808265 0.0066830236 0.01866002 0.029132284
000010 c9 9e fa bb 90 ff de bc 67 ae 72 3c b3 a0 d9 bb
       -0.007648323 -0.027221471 0.014812089 -0.0066414713
000020 32 f8 94 bc c5 2e 8a 3b
       -0.018184755 0.004217001
