Practice4/logs/lightning_logs/version_8/checkpoints/epoch=0-step=525.ckpt (torch, 66651 bytes, 4 tensors)

l1.weight f4 [10, 784]
00000000: e6a5 923c d9f3 0e3d 10c9 2e3c ceea f13c
00000010: 543f 6d3c c084 dcbc b746 06bd 3c92 d4bc
00000020: 8058 d13b dc4b 0ebd a864 d83b a5d3 dbbc
00000030: 0ab8 abbc 2afd fb3c ab7c 0b3d 8042 d63b
00000040: a8a5 ae3b 3c02 863c f0b5 103b 4c68 da3c
00000050: 23c4 093d a0df 7fbb 2e76 4cbc 581c 233c
00000060: e72a 90bc 7155 003d 98ee e6bc 7b7f 043d
00000070: 27ba 8bbc 50f1 193c 550f 11bd 20a9 fdba
00000080: 802f b63b 88ad bf3c a18e 093d a8c3 753c
00000090: 4e3e 12bd 75c9 93bc cc71 0bbd 500a cc3c
000000a0: c036 013a 5396 87bc 98d3 b33b 97ef a1bc
000000b0: 8074 f2b9 22da f93c 0095 b6b9 7019 91bb
000000c0: ce92 c0bc 3e24 ec3c 7ad6 823c 045a 03bd
000000d0: 42e4 853c 5ca5 433c 6c33 0dbd 5d21 113d
000000e0: c006 e73a f8c0 01bd 2077 823c 501f ce3c
000000f0: 28e9 4d3c f6db e13c d6c4 e83c 704a b1bc
00000100: da38 ed3c 7c47 40bc 0ea3 b73c 4ac0 c3bc
00000110: e636 e13c dc72 ddbb 0027 dcbc 9a0e c83c
00000120: e52f 3ebd 331a 3bbd 4bc9 e3bd 925c efbc
00000130: 0080 98b8 8006 01bb 9560 bfbc 92f9 b33c
00000140: 70b5 793c a5ae 97bc cae2 84bc 08ab b0bb
00000150: 20fa 4e3b 7cee b73c cf3d 12bd 483a f0bc
00000160: ceee 8dbc 7869 193c e012 adba c285 e53c
00000170: 7c06 243c a62f b33a c6cf 2fbc 4567 aabd
00000180: 080c 23bd 9887 7dbd 1d53 02bd 510e 7dbc
00000190: 129a 32bc 055b 50bd 2071 c9bd b5f5 85bd
000001a0: 80e1 74bc a80e bbbc 52ed 4dbc 6963 103d
000001b0: e0d1 40bb 2449 103c 4eef e6bc b48f 603c
000001c0: 66c2 0cbd 125d 10bc 5dd8 0cbd c81c c7bc
000001d0: db55 33bb b2b8 453c e62f e2bc 16de e2bc
000001e0: ce32 00bd c962 f5bd b6f5 0fbe 1391 85be
000001f0: ba7e 88be 3239 81be 269d a8be 8fcf 95be
00000200: 42c3 b3be 21e0 a0be 53ec 6bbe ac65 25be
00000210: b4d3 01bd 1d1f 0fbd 67ba 073d 20b0 c4ba
00000220: d488 00bd 60b0 abba 2c71 c9bc 909c 973b
00000230: 409f 28ba 6aba 19bc aa1e e43c 48c8 933c
00000240: eeed d0ba cc55 18bd 10e1 92bd fa6b 1dbe
00000250: ab96 87be deca 8dbe cb18 b4be d8fb e5be
00000260: 7b85 e3be bd79 f6be 32d0 10bf 909d 30bf
00000270: cd58 47bf e1a4 19bf 703a e5be bfd9 b8be
00000280: 0e84 8abe 3984 ccbd f6b1 ecbc de91 4ebb
00000290: 87ee 043d 8ee5 01bc 1785 83bc 4856 a93c
000002a0: c8d2 f4bc 200c 31bb 9ccc d8bb 5ce5 b1bb
000002b0: db0b fb3b 9684 1fbd a154 40be 6b7a 8abe
000002c0: 62a6 d3be 0f05 cfbe d6d3 eebe 9a8e 1abf
000002d0: 733a 20bf 05f3 48bf 0295 4dbf 1e5a 67bf
000002e0: 79d7 6ebf 4522 4cbf f20a 14bf 3d8c e5be
000002f0: 36ec b6be 727f 38be 6f86 51bd 9d01 883d
00000300: 628c c53c 48c8 cb3c 9810 aabc 0525 043d
00000310: f0b1 b93b 8c39 b5bc 6849 d53b f9ff 063d
00000320: c240 913b cad8 01be d6cf 68be e064 ebbe
00000330: 0f07 e9be f223 08bf d465 31bf 5bc2 59bf
00000340: c0f7 5bbf 6bfc 4bbf e060 4ebf 723d 80bf
00000350: 9abe 76bf 4abc 55bf 4215 30bf de2b 02bf
00000360: 3454 c7be f40f 75be e444 2abe f113 70bc
00000370: 3194 023c 08a8 693c 20ef a8bc 1acf 9ebc
00000380: 00ef 87bb 9cda cf3c 9c06 01bd 8eca b5bc
00000390: 8cf4 cfbc a1fa 22be 3ca5 a4be 2d41 e4be
000003a0: b738 ffbe 22a9 17bf 3302 30bf 3f52 3ebf
000003b0: dc37 3ebf 2116 07bf 30f6 1abf d14f 42bf
000003c0: 6402 5dbf eb21 5cbf 4b33 50bf bd00 1ebf
000003d0: e67c d5be 5216 86be 17b3 07be 80d6 4cbd
000003e0: ad84 923b 5a33 f4bc c8d7 edbc d4b6 4a3c
000003f0: 8416 773c b0f7 1c3c 3013 cc3b 4296 11bd
0.017901372 0.03490052 0.010668054 0.029530909 0.014480431 -0.026918769 -0.032782283 -0.025948636
0.006388724 -0.034740314 0.006603796 -0.026834318 -0.02096178 0.030760366 0.03405444 0.006538689
0.0053298064 0.016358487 0.00220811 0.02666106 0.033634316 -0.0039043203 -0.012479348 0.009955488
-0.017598582 0.031331483 -0.028189942 0.032348137 -0.017056538 0.009395912 -0.035415012 -0.0019352771
0.0055598617 0.023398176 0.033583287 0.015000261 -0.03570395 -0.018040398 -0.034044072 0.024907261
0.0004929118 -0.016551172 0.0054878704 -0.019767566 -0.00046244636 0.030499522 -0.0003482476 -0.004428081
-0.023507502 0.028825875 0.015971411 -0.032068267 0.016344193 0.01194128 -0.034472868 0.03543221
0.0017625913 -0.03167817 0.015925944 0.025161415 0.012567796 0.027570706 0.028414171 -0.02164194
0.028957773 -0.011735793 0.022416618 -0.023895402 0.027491998 -0.006758077 -0.026874065 0.024421025
-0.046432395 -0.045679282 -0.11122378 -0.029218946 -7.271767e-05 -0.0019687712 -0.023361484 0.02196959
0.015241012 -0.018515894 -0.016221423 -0.0053914823 0.0031582192 0.022452585 -0.035703477 -0.029324666
-0.017325785 0.009363525 -0.0013204478 0.028017882 0.010011312 0.0013670817 -0.010730689 -0.08320478
-0.039806396 -0.06189689 -0.031817544 -0.015445308 -0.010900991 -0.050868053 -0.0983603 -0.065410055
-0.0149463415 -0.022834137 -0.012568789 0.035251055 -0.002942197 0.008806501 -0.028190281 0.0137061365
-0.03436508 -0.008811252 -0.034386028 -0.024305716 -0.0027364406 0.012067961 -0.02761073 -0.02769379
-0.03129845 -0.119817324 -0.14058575 -0.26087245 -0.26659185 -0.2523895 -0.32932395 -0.29259917
-0.35109907 -0.31420997 -0.2303937 -0.16152066 -0.031696036 -0.03494178 0.03313675 -0.0015006103
-0.03138049 -0.0013098828 -0.024590097 0.004626818 -0.00064324215 -0.0093828235 0.027846653 0.018039837
-0.0015940049 -0.037191197 -0.071718335 -0.15373221 -0.26482138 -0.27693838 -0.35175166 -0.44918704
-0.44437775 -0.48139754 -0.5656768 -0.6899042 -0.77869874 -0.6001721 -0.44771147 -0.36103627
-0.27053875 -0.09986157 -0.028893452 -0.003152005 0.03245404 -0.007928265 -0.016054673 0.020671025
-0.029885665 -0.0027015284 -0.006616188 -0.005428953 0.0076613254 -0.038944803 -0.18782283 -0.27046522
-0.41337878 -0.40433547 -0.46645993 -0.6037384 -0.62589186 -0.7849582 -0.8030549 -0.9037188
-0.93297535 -0.7973979 -0.578292 -0.44833556 -0.3572709 -0.18017367 -0.051153596 0.06640933
0.024114791 0.024875775 -0.020759866 0.032261867 0.0056669638 -0.022122167 0.006508995 0.03295896
0.0044327686 -0.12680355 -0.22735533 -0.459754 -0.45513198 -0.5317985 -0.69296 -0.8506219
-0.8592491 -0.79682034 -0.8061657 -1.0018752 -0.96384585 -0.8349043 -0.68782437 -0.50848186
-0.3893143 -0.23931867 -0.16627842 -0.014653192 0.007969902 0.014261253 -0.020621836 -0.019385863
-0.004148364 0.025372796 -0.031500444 -0.022191312 -0.025385164 -0.1591592 -0.32157314 -0.44580975
-0.49847957 -0.5924245 -0.68753356 -0.7434425 -0.74303985 -0.5276814 -0.605319 -0.7590304
-0.8633177 -0.85989255 -0.81328267 -0.61719877 -0.41696852 -0.26188904 -0.13251911 -0.05000925
0.0044713826 -0.029809643 -0.029033557 0.012372691 0.015081052 0.009580538 0.0062278733 -0.035543688

l1.bias f4 [10]
00000000: 22d5 853c 5996 82bb 0022 d1bb b75c ad3c
00000010: 2b8f afbc 08d6 8fbc 45df 51bc 466f cdbc
00000020: 6208 7cbc 6fe9 dabc
0.016336981 -0.003985208 -0.006382227 0.021162374 -0.021430572 -0.017558113 -0.012809579 -0.025077473
-0.015382858 -0.026722638

momentum_buffer f4 [10, 784]
00000000: 0000 0000 0000 0000 0000 0000 0000 0000
00000010: 0000 0000 0000 0000 0000 0000 0000 0000
00000020: 0000 0000 0000 0000 0000 0000 0000 0000
00000030: 0000 0000 0000 0000 0000 0000 0000 0000
00000040: 0000 0000 0000 0000 0000 0000 0000 0000
00000050: 0000 0000 0000 0000 0000 0000 0000 0000
00000060: 0000 0000 0000 0000 0000 0000 0000 0000
00000070: 0000 0000 0000 0000 0000 0000 0000 0000
00000080: 0000 0000 0000 0000 0000 0000 0000 0000
00000090: 0000 0000 0000 0000 0000 0000 0000 0000
000000a0: 0000 0000 0000 0000 0000 0000 0000 0000
000000b0: 0000 0000 0000 0000 0000 0000 0000 0000
000000c0: 0000 0000 0000 0000 0000 0000 0000 0000
000000d0: 0000 0000 0000 0000 0000 0000 0000 0000
000000e0: 0000 0000 0000 0000 0000 0000 0000 0000
000000f0: 0000 0000 0000 0000 0000 0000 0000 0000
00000100: 0000 0000 0000 0000 0000 0000 0000 0000
00000110: 0000 0000 0000 0000 0000 0000 0400 0000
00000120: 88e7 0018 8446 2919 47e6 3319 62fb 3a18
00000130: 0000 0000 0000 0000 0000 0000 0000 0000
00000140: 0000 0000 0000 0000 0000 0000 0000 0000
00000150: 0000 0000 0000 0000 0000 0000 0000 0000
00000160: 0000 0000 0000 0000 0000 0000 0000 0000
00000170: 0000 0000 167c a117 3b65 5e18 8e1a df18
00000180: 44fc 1819 4587 0b19 8e10 c218 5dcf 1c18
00000190: 296f 7b18 cccf 3519 cf34 8319 f926 9618
000001a0: 0000 0000 0000 0000 0000 0000 0000 0000
000001b0: 0000 0000 0000 0000 0000 0000 0000 0000
000001c0: 0000 0000 0000 0000 0000 0000 0000 0000
000001d0: e550 b515 4c51 2417 4c51 2417 4c51 a417
000001e0: 9ee4 f718 313f 7819 f42d c119 4dcb 0b1a
000001f0: 280a 071a bc37 1e1a 2893 3a1a 9913 341a
00000200: 7e54 411a 8c32 2d1a 066e 191a 1d1a c519
00000210: 1fb4 0119 1de3 d816 7002 0000 0000 0000
00000220: 0000 0000 0000 0000 0000 0000 0000 0000
00000230: 0000 0000 0000 0000 0000 0000 0000 0000
00000240: dbcf df17 9f7b b218 2642 0119 6921 a119
00000250: 2eeb 0d1a 5365 201a b963 511a ac5b 861a
00000260: d691 841a 5797 941a 6e43 a51a 5c88 bf1a
00000270: bb92 dc1a 7bea ae1a 16e0 891a f6df 5f1a
00000280: c5df 191a 3890 8919 4481 a718 cdc6 f496
00000290: 342f 2395 0000 0000 0000 0000 0000 0000
000002a0: 0000 0000 0000 0000 0000 0000 0000 0000
000002b0: 66a6 af17 5c31 2219 85ab b519 02c3 131a
000002c0: ef8c 691a 9633 601a 406c 8d1a a8a9 ae1a
000002d0: 0394 be1a 8aeb df1a d4e6 eb1a 056a 071b
000002e0: 1675 0a1b 94eb e21a f84c af1a 7de1 881a
000002f0: a276 511a 0650 ad19 f343 3b18 60d8 8798
00000300: f02d d696 0000 0000 0000 0000 0000 0000
00000310: 0000 0000 0000 0000 0000 0000 0000 0000
00000320: c0d0 bd17 8f8f 6c19 1a07 fd19 030e 7d1a
00000330: 0740 821a b3e1 9e1a ea46 cc1a 1463 ef1a
00000340: a717 f41a 34c1 e01a fd9b eb1a 5d53 161b
00000350: a08f 0d1b 2190 f11a 0111 c61a 89d3 981a
00000360: eca8 711a b3fe 051a 6494 9c19 f217 7118
00000370: 263c 9d17 0400 0000 0000 0000 0000 0000
00000380: 0000 0000 0000 0000 0000 0000 0000 0000
00000390: 167c a117 46c6 b119 f4d1 341a 466e 801a
000003a0: fa60 981a a5dc ae1a 782b d21a 09e3 e01a
000003b0: cf63 d71a 108d a31a ec27 b21a fe38 e61a
000003c0: 935a f01a df08 fd1a bcd7 e61a 4023 b11a
000003d0: 4304 771a b665 241a b5b3 8319 2716 8d18
000003e0: 9836 d217 0400 0000 0000 0000 0000 0000
000003f0: 0000 0000 0000 0000 0000 0000 0400 0000
0.0 0.0 0.0 0.0 0.0 0.0 0.0 0.0
0.0 0.0 0.0 0.0 0.0 0.0 0.0 0.0
0.0 0.0 0.0 0.0 0.0 0.0 0.0 0.0
0.0 0.0 0.0 0.0 0.0 0.0 0.0 0.0
0.0 0.0 0.0 0.0 0.0 0.0 0.0 0.0
0.0 0.0 0.0 0.0 0.0 0.0 0.0 0.0
0.0 0.0 0.0 0.0 0.0 0.0 0.0 0.0
0.0 0.0 0.0 0.0 0.0 0.0 0.0 0.0
0.0 0.0 0.0 0.0 0.0 0.0 0.0 6e-45
1.6660506e-24 8.751336e-24 9.300587e-24 2.4166852e-24 0.0 0.0 0.0 0.0
0.0 0.0 0.0 0.0 0.0 0.0 0.0 0.0
0.0 0.0 0.0 0.0 0.0 1.0435705e-24 2.8743936e-24 5.7670962e-24
7.9091605e-24 7.213449e-24 5.016454e-24 2.026722e-24 3.2497111e-24 9.399445e-24 1.3566412e-23 3.8813444e-24
0.0 0.0 0.0 0.0 0.0 0.0 0.0 0.0
0.0 0.0 0.0 0.0 7.3232947e-26 5.309387e-25 5.309387e-25 1.0618774e-24
6.4078848e-24 1.2834061e-23 1.9974293e-23 2.890875e-23 2.792555e-23 3.2718656e-23 3.858277e-23 3.723896e-23
3.9979717e-23 3.5816393e-23 3.1728535e-23 2.037987e-23 6.705519e-24 3.504001e-25 8.74e-43 0.0
0.0 0.0 0.0 0.0 0.0 0.0 0.0 0.0
1.4463507e-24 4.6136747e-24 6.682502e-24 1.6660504e-23 2.9348093e-23 3.3169074e-23 4.3300742e-23 5.5569205e-23
5.482953e-23 6.145587e-23 6.835134e-23 7.921605e-23 9.1226923e-23 7.234354e-23 5.70239e-23 4.6296233e-23
3.1820418e-23 1.4223717e-23 4.3299013e-24 -3.9545787e-25 -3.2954825e-26 0.0 0.0 0.0
0.0 0.0 0.0 0.0 1.1351115e-24 8.385172e-24 1.8784238e-23 3.0556414e-23
4.8297116e-23 4.6363785e-23 5.849112e-23 7.223881e-23 7.8821284e-23 9.261117e-23 9.7566645e-23 1.1201195e-22
1.1452925e-22 9.3852006e-23 7.2502653e-23 5.661258e-23 4.3316018e-23 1.7920102e-23 2.420349e-24 -3.5115165e-24
-3.4602555e-25 0.0 0.0 0.0 0.0 0.0 0.0 0.0
1.2266535e-24 1.22299055e-23 2.6162455e-23 5.2330492e-23 5.387018e-23 6.5711905e-23 8.448699e-23 9.900815e-23
1.0095425e-22 9.2956365e-23 9.7445735e-23 1.2434645e-22 1.1709654e-22 9.9908117e-23 8.191835e-23 6.320748e-23
4.9974086e-23 2.77095e-23 1.6189956e-23 3.116061e-24 1.0161071e-24 6e-45 0.0 0.0
0.0 0.0 0.0 0.0 1.0435705e-24 1.8381453e-23 3.7392726e-23 5.3117716e-23
6.30224e-23 7.2321184e-23 8.692419e-23 9.3011024e-23 8.9083165e-23 6.764312e-23 7.368357e-23 9.5217846e-23
9.9408004e-23 1.0465268e-22 9.547431e-23 7.3262434e-23 5.1081845e-23 3.3996567e-23 1.3617666e-23 3.6470014e-24
1.3584713e-24 6e-45 0.0 0.0 0.0 0.0 0.0 6e-45

momentum_buffer f4 [10]
00000000: 20a8 8f17 8e45 2c17 8d20 13b8 79fa 2915
00000010: 10c7 33ba b55c 9516 4eff 2f17 461e 7817
00000020: 8a85 ca16 cf47 b217
9.283599e-25 5.566399e-25 -3.5077846e-05 3.4326866e-26 -0.0006857971 2.4130755e-25 5.686779e-25 8.017133e-25
3.2719135e-25 1.1521107e-24
