Practice6/logs/lightning_logs/version_0/checkpoints/epoch=5-step=42.ckpt (torch, 138531 bytes, 18 tensors)

rnn.weight_ih_l0 f4 [64, 100]
00000000: 2e40 393c a625 d43d 7b8a dbbc d143 dd3d
00000010: 35b4 013c 5aa0 9dbc b15f 583d d196 b23b
00000020: 500b 1e3c 48dd 203d 8e72 d23d e588 dcbd
00000030: 0846 d8bb e47a 863d c193 05bd 9744 0d3e
00000040: d4f2 99bd b2ea cc3d daa7 513d 3f09 e33d
00000050: 80fe d0bd d030 c7bc 5d3b e7bc 8d91 113d
00000060: a9c4 24bd bc44 c53d a352 be3d a416 08be
00000070: b662 b93d 408e ea3c b2fc d6bd e55e 023e
00000080: 82f0 7d3d b28f 2c3c c616 8d3d 5c41 ef3d
00000090: 5ba8 25bd c978 6dbd cd36 bf3d 203a ca3d
000000a0: 2db3 0bbc 23d1 3c3d 5850 97bd a0e4 843d
000000b0: 69fe db3c 36e5 9a3d f339 9cbd a595 6b3d
000000c0: ea7b 09bd bd0c b7bd 85db fb3d 79ef 70bd
000000d0: 346f 503c ce2f dabd 36b6 c63d 1cae c13d
000000e0: dd32 bd3d 30da ff3d befc af3c 8018 1fbd
000000f0: 206a 58bb 7175 fe3d d7e3 1e3d 2bab b13d
00000100: c836 cf3c 996a 8fbd a292 63bc f34f 2dbd
00000110: 12fb b0bd 99e6 bcbd 1379 23bd 0cbd a43d
00000120: e8bb c0bd ab3c 04be 35cb d13b 7f18 95bc
00000130: 1af2 babb c351 9d3b d01f e9bb b409 83bd
00000140: 5c06 ac3d d925 cd3d 331a 4dbd 403d aebd
00000150: 61bb bfbd 2b65 183d fc66 e73a 8f61 843c
00000160: 699f 18bd dca9 afbd be4d ec3c 4765 04bd
00000170: afd8 9cbd 348b a6bc 65be d4bc d51f aeba
00000180: 0a00 d4bb ef4c cf3d 1a86 ce3d 58ed b33d
00000190: b71f a4bb 8bee d23d 3e5c 9dbd e459 07be
000001a0: 7ae1 aaba 3a5c c0bd 267e d2bd 0020 883d
000001b0: c32c 873d 5f26 8d3d a9df 6cbd ad94 d3bc
000001c0: deed 96bd addd ff3c 524e f2bd 1ff2 043e
000001d0: a3f9 483c 80d1 013e 4d77 39ba 0397 f73d
000001e0: 2287 ddbd 8a2e 93bd 8abc 7e3c de8a 8dbd
000001f0: f419 4a3d b22c a4bd bef7 0fbd 8244 b4bd
00000200: 00bf a43d 852b 093d af36 693c d69f 553b
00000210: d7fd de3d da79 043e 2022 8f3d d8a4 e0bd
00000220: acc7 8b3c f010 7dbd d553 9d3c c9d0 d33d
00000230: 8768 9c3d cea5 85bb 262c cd3d eb3a 083d
00000240: f6f7 bb3d 0c5b 10bd 632b 473d d314 c3bb
00000250: c9b1 893d 1300 2f3c 734d b83d 4f09 453b
00000260: ae42 863d adf9 26bd f3d4 3dbd 9366 503d
00000270: 7320 80bd 34b5 873d 58e1 843d bd24 b73d
00000280: bbb0 90bd ed29 cb3c 5258 1cbd 9552 df3d
00000290: 0021 1b3c 7336 53bd 7473 a43d 43b0 2ebd
000002a0: acd1 323a 03a0 bf3d 3651 c3bd aa21 443c
000002b0: 1823 8bbd 5bff c1bd 132a c3bc 264c efbd
000002c0: 9e71 04bd 2f87 bf3d 7b07 09bd 4147 7dbd
000002d0: 91a5 223d c554 ffbd edd8 80bd 6a73 75bd
000002e0: 882b cbbd 1dc9 a53c 987e 723b 477c 01be
000002f0: 5ac4 8ebd 97df 96bd 6cef 003d ce69 1f3d
00000300: 1c97 cb3a b057 bbbd 8476 c23d 7e5d db3d
00000310: ce25 a3bd 0ea8 0bbd e57a f9bd 7975 513d
00000320: 2041 3b3d 4f11 2a3d 14df 5bbd 5277 d4bd
00000330: d2e1 e53d 5734 eb3c 4103 223c 3bcc f7bd
00000340: a139 53bb cfa9 863d d386 c03d 4fae 86bd
00000350: 68e1 87bc a315 8bbd 730d c3bc 07c2 a1bd
00000360: 27e5 18bd 0034 91bb 6298 253d d691 a83d
00000370: 6d4f a73d 026b 9e3d fddf 8fbd bb56 17bd
00000380: 88ae 47bd f6e7 cf3b 06d9 2ebc f741 8d3d
00000390: 12bc 40bb e299 ecbd a190 833d eda9 c6bd
000003a0: a373 ce3d 4934 853a f0bc debd 17d1 bf3d
000003b0: a78b ebbd 609c ab3d 14b6 abbd 511f 063d
000003c0: 5861 a83d c116 f83c ce38 903d 3df8 9bbd
000003d0: 0b40 55bd bdf2 db3c 64b1 d4bb 391c c6bd
000003e0: 020d 9cbd 23ad 85bd 3697 c23c 0d8e cfbd
000003f0: 97ff 87bb dd0e b53c 2adc d1bd ebae 32bc
0.011306806 0.10358743 -0.026799431 0.108039506 0.0079165 -0.0192415 0.052825633 0.0054501076
0.009646252 0.03927353 0.10275756 -0.10768298 -0.0066001453 0.06566408 -0.032611612 0.13795696
-0.07517019 0.10005702 0.051185466 0.11085748 -0.10204792 -0.024315268 -0.028226549 0.0355392
-0.040226612 0.09632251 0.092931055 -0.13289887 0.09052031 0.028632283 -0.104974166 0.12731512
0.061996944 0.0105323065 0.06889109 0.11682388 -0.04044376 -0.057976518 0.09336624 0.09874368
-0.008526606 0.046097886 -0.07388371 0.06488919 0.02685471 0.0756325 -0.076282404 0.05751576
-0.03356544 -0.089379765 0.122977294 -0.05882213 0.012721825 -0.10653649 0.09702723 0.09457037
0.09238217 0.12492788 0.021482822 -0.038841724 -0.003302224 0.12424744 0.038791504 0.08675226
0.025294676 -0.07002754 -0.01388994 -0.042312574 -0.08641638 -0.092236705 -0.039910387 0.0804387
-0.0941084 -0.12913768 0.006402398 -0.018200157 -0.0057051303 0.0048010065 -0.007114388 -0.06398335
0.083996505 0.100169845 -0.050073814 -0.08507776 -0.093619116 0.037205856 0.0017654593 0.0161598
-0.0372614 -0.0857732 0.028845664 -0.032323148 -0.076585166 -0.02033005 -0.025969693 -0.0013284633
-0.006469731 0.10122096 0.100841716 0.08785504 -0.0050086635 0.10299405 -0.076836094 -0.13217884
-0.0013037168 -0.09392591 -0.10277967 0.066467285 0.066003345 0.06892084 -0.057830486 -0.02582773
-0.07369588 0.031233633 -0.11831345 0.12982987 0.012266549 0.12677574 -0.0007074967 0.1208935
-0.1081679 -0.07186611 0.015547881 -0.069112524 0.049341157 -0.080163375 -0.035148375 -0.08802129
0.08044243 0.03348877 0.014234229 0.003259649 0.1088826 0.12937108 0.06988931 -0.109689415
0.017062984 -0.06178373 0.019205013 0.10342557 0.076371245 -0.0040786033 0.10018186 0.033259314
0.09178154 -0.03524308 0.04862536 -0.00595341 0.06723363 0.01068117 0.08999147 0.0030065363
0.06555687 -0.040765453 -0.046345662 0.050879072 -0.06256189 0.06626359 0.064882934 0.08942554
-0.07064959 0.024800265 -0.038170166 0.10904423 0.009468317 -0.0515656 0.080298334 -0.042648565
0.00068214047 0.09356692 -0.09536974 0.011970917 -0.06793803 -0.09472533 -0.023823773 -0.11684446
-0.032334916 0.09351956 -0.0334544 -0.06183553 0.039708678 -0.124673404 -0.06291375 -0.05992452
-0.09920412 0.0202375 0.0037001725 -0.12645064 -0.06971045 -0.07366865 0.03147833 0.038919263
0.0015532705 -0.091475844 0.09495261 0.107111916 -0.07966195 -0.034095816 -0.121816434 0.05113742
0.045716405 0.041520413 -0.05367954 -0.10374321 0.112247124 0.028711481 0.009888471 -0.12099501
-0.0032230394 0.06575357 0.09400716 -0.065762155 -0.016586974 -0.06791236 -0.023810124 -0.07898336
-0.03732791 -0.0044312477 0.040428527 0.08230941 0.08169446 0.07735254 -0.07025144 -0.036947947
-0.04875043 0.0063447906 -0.01067186 0.068973474 -0.0029408974 -0.11552788 0.0642407 -0.097003795
0.1008065 0.0010162677 -0.10875881 0.093660526 -0.11501246 0.083794355 -0.08384338 0.03274471
0.08221692 0.030284287 0.07042085 -0.07615707 -0.05206303 0.026849145 -0.006490873 -0.09673352
-0.076196685 -0.06527164 0.023753744 -0.10134516 -0.0041503417 0.022101814 -0.10247071 -0.0109059615

rnn.weight_hh_l0 f4 [64, 64]
00000000: 1c33 cf3d d06b babd 6c61 fa3d dc06 9dbc
00000010: 11f3 b0bd f42b d7bc 1a62 03be cb89 c13d
00000020: 394c 633c cb13 363c 158e 0d3e 937a b13d
00000030: 4fd6 cd3d 804e c83d faf1 d23d e11b b03c
00000040: 43a7 833d 2cc2 c3bd 48f8 fb3c 7f0e f4bb
00000050: 2c6c a23d a325 b0bc b9d0 99bd 7a56 99bd
00000060: b3cc e13d 3408 a2bd 0c5f 123c 7227 633d
00000070: c4a6 a13d 0c07 02bd 04d9 da3c f483 82bd
00000080: bdf2 e7bd cef7 523d 2179 79bd 81f2 9f3d
00000090: 730c a7bd bc8e 3bbd e1a7 9b3d ab3f 62bd
000000a0: 9bff 3dbd 9c9a d4bd 18ae 0f3d c1d9 243d
000000b0: e107 103d a1e8 6cbd 9e57 12bd a57e 86bd
000000c0: 49c6 063e 3723 4fbc 91bb f8bd 55a3 d73d
000000d0: 87da 153d 7d8a 54bd cb8b fa3c 63e0 d83d
000000e0: 4b58 9f3c cade f93d 9466 9fbd 1fdd 583d
000000f0: 1198 c4bb a0a8 db3d 6dbc d6bd e5e3 563b
00000100: 1484 b13c 69e0 04be a96d e9bd ef61 923d
00000110: ecf9 eebc 8fa1 4bbd 23f3 a6bd 5cd9 7cbd
00000120: 30c1 e3bd d86e e9bd 35df 413b 5cd1 983d
00000130: 0680 1a3d 2a9a cf3d 37e1 003e 1097 dabd
00000140: 4b0a bc3d 8761 05bd 29c1 443d 0ca0 9cbd
00000150: bfbf f93d 45fd 903d 635a 03be e22b 30bb
00000160: 68ea a3bd ca4f fbbd a91e 4a3d 0cf8 06bd
00000170: cfb3 483d 0354 a3bd ccdc 4e3d d8e0 083d
00000180: f2af e2bd 835c 5ebd 48e2 b8bd f0ff b73d
00000190: 233a 973d b7c3 df3d 323e 093e 772f 053e
000001a0: 14bf 733d f2d5 0bbe 821d d5bd 3a12 d9bd
000001b0: 864b 703d 5e00 a7bd 9ceb d4bd 1fa9 b13d
000001c0: 41dc 81bd e9f1 09bc 02ff 2bbd ebaa 1d3c
000001d0: ba03 813d bc3a 22bd db13 b13d 0c24 8cbd
000001e0: f5eb ecbc 06db 7ebd 597c 863b 8913 7a3d
000001f0: 7a9f 983c 4619 023e b3e1 09bd 3e5c db3d
00000200: 5f47 c9bd 09a1 a6bd fb43 99bc 97fd 29bc
00000210: d1c2 1b3d 7564 973c f95f 503d c8a2 83bd
00000220: e5cc 5fbd 45e6 973d 7868 c93c c44c 923b
00000230: c65f d03b f525 df3d b8e2 b43d cb09 083e
00000240: a4d4 803d a40d 063e 2852 98bd b186 cfbb
00000250: 1f00 c3bb 5a2d c9bc 19d1 66bd 6f3c bebd
00000260: 0083 e2bd a223 8bbc 3d2b 043e 7d16 54bd
00000270: a372 debd e52b c2bd f492 2c3d 4161 81bc
00000280: b3b9 b93d c777 7f3d 95b3 2a3d bfc8 ab3c
00000290: bb8e 503c 5c42 99bd 4e22 463d 1cfe eabd
000002a0: a32d be3d 0c74 b0bd 4f6f c73d 6fd7 043d
000002b0: 3629 6bbb 0757 b7bc e32a b33d c585 12be
000002c0: c9ef 97b9 c9a7 d03d 4924 973c 68cb 033e
000002d0: 29de 8cbd 338f 8fbd 66d3 b7bd 2943 0f3d
000002e0: 7e06 b7bd 14a1 ecbc 29e0 e9bc 1120 053e
000002f0: 2c89 78bd 8e23 2b3d ff14 093d 5c79 cabd
00000300: d8ea bf3c cda3 d23d 34a8 c2bd 02e3 2b3c
00000310: d485 0f3d 747a 19bd efc9 e2bd b838 e6bc
00000320: 6d52 02bc 22a3 f2bd 9f8f 813d 7a22 edbd
00000330: f264 89bd 77c4 28bd ff02 e53d 0082 c1bd
00000340: a66c b73d 99af 8a3d 830b a83d 8d10 b4bd
00000350: 96fe ccbd 5cf1 8cbd b9e4 9d3a 0658 773b
00000360: d6f6 b8bc 7357 94bd 8a24 c83d e637 ce3c
00000370: 72c7 b3bd 93d1 a73d 9d02 8abd 2634 79bd
00000380: 8408 0f3a 1292 39bd 7276 cabd 6fdd ff3d
00000390: 0789 7bbd ae1a dc3d 982c 80bd 7cfb 843d
000003a0: a847 c0bd b923 983d 96bd d1bd f053 123d
000003b0: 19ad 013e 6b82 a7bd 1bab 3c3d aece 1cbd
000003c0: 8cce 073d 270b aebd 7707 823c 79a2 3dbd
000003d0: 52aa 5d3d 7dc2 6d3d 2076 e5bb 731d 7d3d
000003e0: 09c6 c6bd 10c9 c2bc 1518 b43d 786a 95bd
000003f0: be01 bebc 33c0 d0bd 28db c43d 0393 5d3d
0.1011717 -0.09102595 0.12225613 -0.01916831 -0.08640111 -0.026266076 -0.12830392 0.0945011
0.013873153 0.011113117 0.13823731 0.08665957 0.10050642 0.09780598 0.103000596 0.021497669
0.06428387 -0.0955852 0.030758038 -0.007448017 0.079307884 -0.021502322 -0.07510514 -0.07487197
0.110253714 -0.07911721 0.008933794 0.05545754 0.07893136 -0.031745 0.02671481 -0.06372824
-0.113255955 0.051505856 -0.060906533 0.07809926 -0.081566714 -0.04579042 0.0760038 -0.0552365
-0.046386342 -0.10381052 0.035078138 0.04024673 0.035163764 -0.05783904 -0.03572809 -0.06567124
0.13161577 -0.012642673 -0.121451505 0.105292 0.036585357 -0.051889885 0.030584237 0.10589673
0.019451281 0.12200697 -0.07783237 0.052945253 -0.005999573 0.10725522 -0.10485158 0.0032789644
0.021669425 -0.1297623 -0.11397869 0.071475856 -0.029171906 -0.04971462 -0.081518434 -0.061730728
-0.11120832 -0.11398095 0.0029582505 0.07461807 0.03771975 0.10136826 0.12585913 -0.10673344
0.09181651 -0.032563712 0.048035774 -0.07647714 0.12194776 0.07079557 -0.12827449 -0.0026881625
-0.08003694 -0.12271078 0.049345646 -0.0329514 0.048999604 -0.07975008 0.050503537 0.033417553
-0.11068715 -0.054287445 -0.09027535 0.08984363 0.073841356 0.109260015 0.13402632 0.13006388
0.0595084 -0.13655832 -0.10406019 -0.105991796 0.058665775 -0.08154367 -0.103965014 0.086748354
-0.06340838 -0.008419492 -0.04199124 0.00962327 0.06299539 -0.039606795 0.08646365 -0.06842813
-0.028921107 -0.062220596 0.004104179 0.061053786 0.018630732 0.12704954 -0.03366251 0.10710953
-0.09828066 -0.08136184 -0.018709173 -0.010375402 0.03802759 0.018480519 0.050872777 -0.064275324
-0.054638762 0.07416967 0.024585947 0.0044647176 0.0063590733 0.108959116 0.08832306 0.13284986
0.06290558 0.13091141 -0.07437545 -0.006333195 -0.005950942 -0.024557758 -0.056351755 -0.092888705
-0.110601425 -0.016984764 0.12907119 -0.05177926 -0.10861709 -0.094810285 0.042132333 -0.015793445
0.090686224 0.062370088 0.04167517 0.020969747 0.012729342 -0.0748336 0.04837256 -0.11474249
0.09286048 -0.08615884 0.09738027 0.032432016 -0.0035882718 -0.022380365 0.08748414 -0.14308842
-0.00028979618 0.101882525 0.01844992 0.12870562 -0.06878311 -0.07009735 -0.08975868 0.03497616
-0.08936785 -0.028885402 -0.02854927 0.13000514 -0.060677692 0.041781954 0.03346729 -0.09886429
0.023427412 0.10285149 -0.095047385 0.010491135 0.035039738 -0.037470296 -0.11073672 -0.028103217
-0.007954222 -0.11847521 0.06326222 -0.115788415 -0.06708707 -0.04120299 0.11182212 -0.09448624
0.0895627 0.06771774 0.08205321 -0.08792219 -0.10009496 -0.06881973 0.0012046314 0.0037741675
-0.022578638 -0.07243242 0.09772594 0.025173139 -0.087782755 0.0819427 -0.0673878 -0.06084075
0.0005456286 -0.04530532 -0.09885873 0.12493407 -0.061409976 0.10747276 -0.062585056 0.06493279
-0.09388667 0.074286886 -0.10241239 0.03572458 0.12663688 -0.08179172 0.046061616 -0.038283043
0.033155963 -0.08498221 0.0158727 -0.046297524 0.05411751 0.058046807 -0.007002607 0.061795663
-0.09705741 -0.023777515 0.08793656 -0.07295698 -0.02319419 -0.10192909 0.09612113 0.05409528

rnn.bias_ih_l0 f4 [64]
00000000: bcbf 953d fbdf f1bd 877e 6e3d c054 033e
00000010: 73c9 d53c 1504 b1ba b7d2 8fbd 56b7 ec3d
00000020: 9692 ccbd 9244 103c 7115 0e3d a0bf 053e
00000030: 344f dbbc 7d35 d83c f8b7 96bd 4370 68bd
00000040: 1575 b7bd 5081 fa3c 80e1 f0bc e567 15bc
00000050: 73bd 5c3d e7d6 95bd cc16 acbd 64b6 fe3d
00000060: 2c56 183d f299 873c ce59 e1bd 7d47 413d
00000070: 11db ad3d 2e8f bf3a f756 e4bc e4a5 af3c
00000080: f19d 38bd 8097 e13d 450f 8c3d 2438 e73d
00000090: aa99 9a3d d539 9abd 7b85 18bd 25f5 193d
000000a0: a09f 223d ee85 153d 523b fa3a b9bd 32bd
000000b0: b938 53bd cab1 d5bd 2e6c 8abd 5897 ef3d
000000c0: 8f56 a53d ff64 b1bc 4a0e 01bc 3ed3 703d
000000d0: 9120 e2bd 4119 a63d 8718 283d 748d 3e3b
000000e0: 645b f8bd 3a22 5dbd 730b d3bd 5864 a3bd
000000f0: 6234 033d f65a b9bd 1a2b b13d 96c6 28bc
0.07311961 -0.11810299 0.058226135 0.12825298 0.026097035 -0.0013505245 -0.070226125 0.11558406
-0.099888965 0.008805411 0.034688417 0.1306138 -0.026771165 0.026392693 -0.07359308 -0.056747686
-0.089578785 0.03057924 -0.029404402 -0.009119009 0.05389161 -0.0731638 -0.08402786 0.12437132
0.037191555 0.016552899 -0.11003457 0.047187317 0.08489049 0.0014614814 -0.0278735 0.021441408
-0.0450725 0.110152245 0.0683885 0.11290005 0.0754884 -0.07530562 -0.037236672 0.037587304
0.03970301 0.03650468 0.0019091165 -0.043637965 -0.051567767 -0.10434301 -0.06758915 0.116987884
0.0807315 -0.021654604 -0.007876942 0.058795206 -0.11041368 0.081102856 0.041039016 0.0029076012
-0.121268064 -0.05398772 -0.10304918 -0.079781234 0.032032378 -0.090505525 0.08650799 -0.010301253

rnn.bias_hh_l0 f4 [64]
00000000: 7caa 4fbd 443b efbc f253 0db9 ad47 25bc
00000010: 7929 a93d e151 d2bd 9a1f 4bbd 2bd2 093b
00000020: cf9f 3bbd 5184 0b3c 4b17 e83c e042 903d
00000030: 35c6 8cbc 42eb 55bc f44e 923d 2b85 ffbd
00000040: 37ca 763d 6cf7 4dbd f948 8d3d 7e7f 69bd
00000050: d1f8 5fbc c59c 3f3d 215e c9bc f7de 7f3d
00000060: ee43 ccbd 9e5d a0bd e8d5 913d b169 7bbc
00000070: 40ce 343d 1d62 bc3c bcb9 edbd f78a 97bd
00000080: 3d73 c93d 9cbd e13d e91f 943d 5e2a c83c
00000090: 799c 42bd f36f e33d ddc3 53bc 862f 8cbd
000000a0: 9668 eb3d e312 c13c fb9c bdbd 5752 cebd
000000b0: e5cb c13c 75c2 0ebd f337 02bd 14ae 1a3d
000000c0: 87b1 713d 122f fbbd a59f f4bc b7ff a6bd
000000d0: d35f d5bc d858 60bd 9aba f2bd d242 883d
000000e0: b1b1 d9bc 7e2f ff3d d96c 9cbd 23b6 853c
000000f0: bd9b e23d 5188 883b 19db 533d 6324 cb3d
-0.050699696 -0.029203065 -0.0001347808 -0.01008789 0.082598634 -0.102695234 -0.049590684 0.002102981
-0.045806702 0.008515433 0.02833142 0.070440054 -0.017184356 -0.013056578 0.07143965 -0.12476572
0.06025144 -0.050284788 0.06898684 -0.05700635 -0.013670162 0.046780366 -0.024581017 0.062468495
-0.09973894 -0.07830356 0.071208775 -0.015345023 0.044142008 0.022996003 -0.11607692 -0.07399552
0.09836433 0.11022493 0.07232649 0.024434265 -0.047512505 0.11105337 -0.012925115 -0.06845002
0.114945576 0.023568576 -0.09258457 -0.10074299 0.023656795 -0.034853417 -0.03179164 0.03776367
0.059007194 -0.12264837 -0.02986128 -0.081542425 -0.02604667 -0.054772228 -0.11851998 0.0665337
-0.026573988 0.1246023 -0.076379485 0.016322201 0.11064861 0.004166641 0.05172262 0.099190496

fc.weight f4 [3, 64]
00000000: b1be 653d 4a32 a6bd 95cc e13d d28b f7bb
00000010: ad36 9ebd 6a0b 853d 2f4c c0bb 443a a2bd
00000020: a463 03be 4aea 4f3d 9f86 083d 760c 48bd
00000030: b22e e0bc 3f0c 333d a405 733c 7986 6f3d
00000040: c37a d5bc 96c6 f73c 1a81 c4bd c91f 253d
00000050: 9a76 8fbd a07c 88bd 0351 913c 6cde f8bc
00000060: 921f dd3d 1432 b13d 4e3a d03c c025 30bc
00000070: 64f1 483c c232 a33d cd5d e53c f626 663d
00000080: 0305 b73c aa0d 053c 1531 b8bd cfd4 01be
00000090: e789 45bd cbc1 693c e635 7dbd 100f bb3d
000000a0: 4892 d6bc 7d39 063e c709 e23c c167 e0bd
000000b0: 6b63 10bc 192a 0e3d 8167 5fbd d256 bbbd
000000c0: 9311 39bc 51e9 f03d 7a2d b73d e4f1 9ebd
000000d0: ce35 6f3d 79ba 2ebd 463b b0bd c70d c13c
000000e0: 560e 623c e8d9 ffbd 1fca b73c c41b 453d
000000f0: 7770 c2bd c3a7 e0bd 7685 a3bd d1eb ce3d
00000100: 9503 13bc 2e70 ffbd 2e0f 75bd 803d eb3d
00000110: 1338 97bd 00d8 973b 50d9 b3ba 8860 083e
00000120: 5e26 95bc 9a04 a2bd 84a3 1f3d 38b8 fe3d
00000130: 4afd ecbd e8f2 2d3d 47b1 08bd 1b9d e1bd
00000140: d75b 3ebd 36a9 4e3d af4c 4dbd 779f 9fbd
00000150: 9695 a53d 0603 d43d 5122 ddbd 7bfb ae3d
00000160: de80 923c 8e96 c23c 68a9 243a e101 c7bc
00000170: 5dba 3bbd 6abe b03d 56fa 44bb 5731 b3bb
00000180: 3706 aa3d 2097 c6bb f616 773d 91af a5bd
00000190: 0734 273c d7f6 653d 6dea b7bd 6257 3c3d
000001a0: c7f1 c93d d310 08bd 39f6 b33d 4799 3ebc
000001b0: 73cf 1fbd a0ea bfbd de8d 44bd b86d 8ebc
000001c0: 0e43 e03d ffd9 a9bd a25c cfbd 9f37 2cbd
000001d0: 28c2 df3d 862b 97bd 075d 9cbd 45fe 253d
000001e0: bf13 a4bd 0fea 65bd b5e3 45bd 336e 013d
000001f0: ffb2 e4bc 59fe 823d 2b0f 0ebd c9e2 2e3c
00000200: 184c 963d 2ede 8e3d 807b 89bd cfc4 1b3d
00000210: 8480 eebc 0243 b9bd ca73 0dbd 8716 993d
00000220: 664b 163d a0d3 c03c ee48 f6bd ebfa 983d
00000230: 443e 203d f6c2 b03d 1557 68bd 385f d83d
00000240: 4ae7 c03d 26a3 17bd 3dfa f2bd 4aab f6bd
00000250: 4390 eabd b0d1 043d 1300 95bb 0505 5ebd
00000260: b180 ab3d d7ac c93d db40 d43d 62ba b8bd
00000270: 54f9 a4bd 4564 c3bd 4d9a dbbd a706 e0bd
00000280: 0cf8 04bb 7d46 ccbc 1249 39bd 1431 e3bb
00000290: 5e3b b63c cf52 0b3d 361b 593d 2f6a 2e3d
000002a0: a86b 9e3c 6ff2 913c 2316 ea3c 7abd bf3d
000002b0: b24e 21bc 5103 583d 3eff e1bd 48c4 91bd
000002c0: 5b71 7abd ab4a 2c3c a385 183d 8f24 d73d
000002d0: 7fee 1dbd 646c f93d 5b70 243d 86b3 e4bd
000002e0: af6f e13b fa7f afbc ed47 b3bd b43b 69bd
000002f0: e40b eebd 367c 863d a9e2 f43d b5b4 b0bd
0.05609006 -0.081150606 0.11025349 -0.0075545097 -0.07725272 0.06496318 -0.005868457 -0.079212695
-0.12830979 0.050760545 0.03333151 -0.04884001 -0.027366016 0.04371285 0.014832888 0.058477852
-0.026059514 0.03024606 -0.09594937 0.040313516 -0.07005043 -0.06664395 0.017738825 -0.030379497
0.10797037 0.0865213 0.025418427 -0.010751188 0.012264583 0.07968666 0.02799883 0.0561895
0.022341257 0.008120934 -0.08993737 -0.12678836 -0.048227217 0.014267395 -0.06181898 0.09133732
-0.0261928 0.13107868 0.027592553 -0.109572895 -0.008812766 0.034708116 -0.05454207 -0.09147419
-0.011295694 0.117632516 0.08944221 -0.07760981 0.05840092 -0.042658303 -0.086050555 0.02356614
0.013797363 -0.12492734 0.022435246 0.048122182 -0.09494107 -0.10969498 -0.0798444 0.10103572
-0.008973022 -0.124725685 -0.05982893 0.114863396 -0.07383742 0.0046339035 -0.001372138 0.13318074
-0.018206771 -0.07911034 0.0389743 0.12437481 -0.115717486 0.04246798 -0.03337219 -0.110162936
-0.046474304 0.05045434 -0.05012196 -0.077940874 0.08085172 0.10352139 -0.10797561 0.0854406
0.017883714 0.02375343 0.0006281347 -0.024292888 -0.045832027 0.086300686 -0.0030056438 -0.0054685283
0.08301967 -0.006060496 0.06032463 -0.08090127 0.010205275 0.056143608 -0.0898026 0.045981772
0.098605685 -0.03321917 0.087871976 -0.011633224 -0.0390162 -0.09370923 -0.047986858 -0.017386302
0.1095029 -0.082935326 -0.1012509 -0.042045232 0.10925704 -0.07381348 -0.07634931 0.040525693
-0.08011579 -0.05613142 -0.04831286 0.031599235 -0.027917383 0.06396169 -0.034682434 0.010674187
0.073387325 0.06975971 -0.06713009 0.03802949 -0.029114015 -0.09045984 -0.034534253 0.07475
0.036693 0.02353841 -0.12025629 0.07469734 0.03912188 0.08630936 -0.056723673 0.105650365
0.09419115 -0.037020825 -0.118641354 -0.120443895 -0.11453297 0.032426536 -0.004547128 -0.054204006
0.08374155 0.0984742 0.10363933 -0.09019925 -0.08055368 -0.09540609 -0.1072279 -0.10938769
-0.002028945 -0.024935955 -0.0452357 -0.006933341 0.022245105 0.03401452 0.053004466 0.042581733
0.019338444 0.017815797 0.028575009 0.09362312 -0.009845423 0.052737538 -0.11035012 -0.07117516
-0.06114326 0.010515849 0.03723682 0.1050502 -0.038557526 0.12178877 0.040146213 -0.11167054
0.006879769 -0.021423329 -0.08753953 -0.056941703 -0.11623362 0.0656666 0.119572945 -0.08628217

fc.bias f4 [3]
00000000: 05ad 903d d345 063e e44d 883d
0.07064251 0.13112573 0.066554815

exp_avg f4 [64, 100]
00000000: 3632 97b7 08b0 0036 5c5d 92b6 133c 4836
00000010: 417a ebb6 333f d1b7 abbd ee36 40fc 0f38
00000020: 50bb 9e36 9cef 10b6 4df9 4db7 3c4c 92b7
00000030: e125 48b6 3920 aa37 b489 cb34 115b 77b7
00000040: 8397 60b6 1017 98b7 fe29 1936 ffa6 a8b7
00000050: 6018 c837 154c 8f36 9998 8837 c253 9cb6
00000060: eb1b e0b6 267b 4437 7688 bcb6 cabf 84b5
00000070: 05c6 cfb7 0a42 de36 3b17 c637 820b c7b6
00000080: c151 99b5 1cdf d2b6 f66b 06b7 d9c9 a137
00000090: cc50 19b6 b84e e6b6 930b 80b6 2577 02b7
000000a0: a7ca 5037 75dc 6cb7 d124 c3b7 b7c2 5eb7
000000b0: d1be c136 9d3a 8fb7 25b5 09b7 4f1f 3ab7
000000c0: 3a11 6137 6ee7 4037 8752 03b6 691e adb6
000000d0: b542 1e37 6f47 deb6 53fc 8935 0a6f f3b5
000000e0: 42d4 8f37 552a 2cb7 33b7 33b7 cd27 6cb7
000000f0: ea36 1c37 09d7 12b7 763f 55b4 1834 55b7
00000100: 22f6 c8b7 48c9 e137 1a51 1937 4063 4b37
00000110: 29bf 76b7 b039 eb37 03c8 46b6 7421 4737
00000120: ca99 4337 0616 a836 28dd c137 257f a533
00000130: d885 dbb5 75f2 9db6 c6f6 34b7 669e 4d37
00000140: fda4 d1b7 d44e 1f37 e1e7 5db7 9a54 c337
00000150: 2c82 d0b6 2c5a 69b7 c6cf 58b4 6ac8 c236
00000160: 40ff c3b4 b0cc e1b6 100a 0338 af7d 5636
00000170: 0bdb 8137 743e 7bb6 7ad1 dd37 e082 da36
00000180: 9847 2236 218c 5fb6 2ed4 9db7 4cb4 d635
00000190: a16d de36 5dba 22b7 c792 a034 c492 0838
000001a0: 092d 92b7 a75e 67b8 984e f837 d9e0 bb38
000001b0: 26e4 2cb6 2810 acb5 39f7 12b7 37f3 34b8
000001c0: 7e12 07b8 499d 3138 91ab 11b7 77c5 09b8
000001d0: d0e1 5337 3386 dbb7 a0f6 9237 a7b1 95b8
000001e0: a805 7137 86d0 9937 6068 d137 cb9a bb36
000001f0: 5916 66b7 82ba 76b7 e735 9bb7 0ee9 2ab6
00000200: 4097 2fb8 567d e137 9bfd d937 80fb 95b5
00000210: f3b8 1537 ccec cbb7 5055 e4b7 306b 2035
00000220: 09f4 dab5 ba4d 45b8 e668 d6b5 c79e 54b8
00000230: 98cc 56b5 5035 4fb8 f640 26b8 13de 70b7
00000240: ddef cd37 ccaf b4b6 717b 69b7 5c0d 82b6
00000250: f4d3 f837 cae1 d737 5349 68b7 0b2d 64b7
00000260: 0871 2fb6 7f95 b1b7 d8a5 43b6 a0a9 0335
00000270: ab8f 1438 62aa 42b8 c5ef 00b8 1c77 bfb5
00000280: 0cd9 37b7 2dd5 0eb8 c9c6 5a37 c0ec 44b7
00000290: 06b0 50b8 d985 3538 8125 e136 7042 e937
000002a0: c24f 78b8 0a71 1838 6b42 5937 9c39 0a37
000002b0: f7e3 c437 538a 5037 0ac1 bf37 ea00 1b37
000002c0: fd6c 5d37 292d 91b5 cb40 0cb8 0d05 4a37
000002d0: b603 17b7 4d08 3a35 5391 6ab6 866d aa37
000002e0: 47b4 9fb7 d663 8ab7 46e3 0437 bc2d d037
000002f0: f0d9 5b37 7e4f e436 e2c8 3638 b458 4936
00000300: 33e6 b437 dbbc 4137 31ca 9c37 93fc 3537
00000310: 43d9 d236 dc7a 2337 903c abb5 e7e4 a436
00000320: aff4 3a38 e37f 9237 5968 69b8 ad72 0ab8
00000330: 8ec1 9a37 d5d9 dab7 d760 8338 8b07 8f38
00000340: b536 06b8 1be9 90b8 b332 9c36 a924 32b7
00000350: 1872 65b7 0a09 12b7 a669 0e38 5d2a 6438
00000360: e1a9 be36 4fbd 3b36 030f 0b38 4f38 83b8
00000370: b3e8 ceb6 467d 5237 dc5b e3b5 c3a6 a9b6
00000380: 6211 2837 94b8 5ab7 130b 58b8 8b05 11b8
00000390: dbb7 a637 e7a3 f937 4408 0937 2e79 7038
000003a0: 7e05 ae37 9f55 9db8 186f 4c35 ffa5 1a38
000003b0: 4cfb 0337 07be 80b7 dd83 05b8 4d7e 44b8
000003c0: 50b8 c7b7 f8e3 80b7 666d fa37 c4d7 d337
000003d0: f65a 9636 a4e4 9937 5f18 61b8 c9c2 5b38
000003e0: cd4a a437 43f3 0138 54e4 3838 487c 16b8
000003f0: 6081 9537 c844 6cb7 00c6 af37 167f b535
-1.8023984e-05 1.917595e-06 -4.3620075e-06 2.983729e-06 -7.017778e-06 -2.4944171e-05 7.115033e-06 3.4328783e-05
4.730573e-06 -2.1597143e-06 -1.2276997e-05 -1.7440056e-05 -2.982437e-06 2.0280584e-05 3.791189e-07 -1.474355e-05
-3.3466793e-06 -1.8130551e-05 2.282322e-06 -2.0104924e-05 2.3853208e-05 4.270589e-06 1.6283522e-05 -4.658913e-06
-6.6789703e-06 1.1711183e-05 -5.6187228e-06 -9.890584e-07 -2.4768533e-05 6.6238035e-06 2.3614257e-05 -5.932002e-06
-1.1423182e-06 -6.284461e-06 -8.012159e-06 1.9286688e-05 -2.2845807e-06 -6.863698e-06 -3.8160447e-06 -7.776344e-06
1.244495e-05 -1.4118025e-05 -2.3262955e-05 -1.3277567e-05 5.774062e-06 -1.7074222e-05 -8.208012e-06 -1.10937535e-05
1.3415056e-05 1.1497976e-05 -1.9568558e-06 -5.159342e-06 9.433065e-06 -6.6244315e-06 1.0280731e-06 -1.8137227e-06
1.7145769e-05 -1.0261855e-05 -1.0711886e-05 -1.4075963e-05 9.31111e-06 -8.752345e-06 -1.9860258e-07 -1.2707918e-05
-2.3956472e-05 2.6915819e-05 9.138394e-06 1.2122851e-05 -1.4707251e-05 2.8041046e-05 -2.9620721e-06 1.1869113e-05
1.16587125e-05 5.009354e-06 2.3110377e-05 7.706539e-08 -1.6355725e-06 -4.7071903e-06 -1.07862925e-05 1.2255832e-05
-2.499157e-05 9.495492e-06 -1.3226615e-05 2.3285207e-05 -6.214037e-06 -1.3908877e-05 -2.0192155e-07 5.804982e-06
-3.65073e-07 -6.7293513e-06 3.1242205e-05 3.1961642e-06 1.5479998e-05 -3.7438267e-06 2.6442798e-05 6.512142e-06
2.4181554e-06 -3.3311155e-06 -1.8814662e-05 1.5996716e-06 6.628878e-06 -9.6993435e-06 2.9909117e-07 3.2561613e-05
-1.7425527e-05 -5.5162844e-05 2.9600502e-05 8.958736e-05 -2.5762797e-06 -1.2819701e-06 -8.759839e-06 -4.3141856e-05
-3.220373e-05 4.234657e-05 -8.682619e-06 -3.284725e-05 1.2629156e-05 -2.6169326e-05 1.75194e-05 -7.137964e-05
1.4366036e-05 1.8336123e-05 2.4963345e-05 5.5910546e-06 -1.37142715e-05 -1.4706167e-05 -1.850254e-05 -2.546763e-06
-4.1864114e-05 2.6880454e-05 2.598651e-05 -1.1174561e-06 8.924154e-06 -2.4309753e-05 -2.7219445e-05 5.9760623e-07
-1.6313289e-06 -4.704085e-05 -1.5974772e-06 -5.069261e-05 -8.0018935e-07 -4.9402297e-05 -3.9637984e-05 -1.435682e-05
2.45496e-05 -5.3848835e-06 -1.3916623e-05 -3.875857e-06 2.9662602e-05 2.5735138e-05 -1.384535e-05 -1.3600346e-05
-2.6142825e-06 -2.1169659e-05 -2.9153798e-06 4.904814e-07 3.541975e-05 -4.6411886e-05 -3.074088e-05 -1.4265274e-06
-1.0958185e-05 -3.4053974e-05 1.3040096e-05 -1.1737633e-05 -4.9755e-05 4.3278418e-05 6.7098886e-06 2.7806702e-05
-5.9202088e-05 3.63449e-05 1.2949672e-05 8.238854e-06 2.3471175e-05 1.2429972e-05 2.2858865e-05 9.238933e-06
1.3198002e-05 -1.0816485e-06 -3.3438944e-05 1.2041314e-05 -9.001165e-06 6.930248e-07 -3.4953307e-06 2.031658e-05
-1.9038225e-05 -1.6497372e-05 7.920729e-06 2.4816829e-05 1.310416e-05 6.8041836e-06 4.3579268e-05 3.0002966e-06
2.1564867e-05 1.1547668e-05 1.8690802e-05 1.0847248e-05 6.2837803e-06 9.7441625e-06 -1.2758119e-06 4.9142286e-06
4.4573735e-05 1.7464108e-05 -5.564871e-05 -3.3008564e-05 1.8448362e-05 -2.6089061e-05 6.2646046e-05 6.820176e-05
-3.199904e-05 -6.909874e-05 4.6550645e-06 -1.0618162e-05 -1.3676028e-05 -8.704383e-06 3.395383e-05 5.439889e-05
5.6822178e-06 2.7975364e-06 3.3154163e-05 -6.257055e-05 -6.166368e-06 1.2546143e-05 -1.6939553e-06 -5.056006e-06
1.0017628e-05 -1.3036788e-05 -5.1508727e-05 -3.4575856e-05 1.9874356e-05 2.9759436e-05 8.167761e-06 5.7333316e-05
2.0744974e-05 -7.5022916e-05 7.6157585e-07 3.6871057e-05 7.866718e-06 -1.5347277e-05 -3.183248e-05 -4.684767e-05
-2.3808476e-05 -1.5364945e-05 2.9853265e-05 2.5253634e-05 4.4809376e-06 1.834549e-05 -5.3666878e-05 5.2395077e-05
1.9585155e-05 3.0982552e-05 4.4081666e-05 -3.5878533e-05 1.7822429e-05 -1.4082711e-05 2.0953827e-05 1.3522538e-06

exp_avg_sq f4 [64, 100]
00000000: 30a8 362e da61 1e2f b7e2 372e 35d8 432f
00000010: 04c2 022f 8475 b42f cab0 692f 80de 5e30
00000020: bdfc 092f 3e14 fb2f c137 692e 4189 782f
00000030: e971 6b2e 7b5c 102f ece8 0a2f a2a1 e42f
00000040: 3481 f72d c99d c92e 2c84 f52d a792 1d30
00000050: 2067 b42e aeb2 e82d 4b5c c62e 2eda cd2e
00000060: 718a c02d a061 d62e 148d da2e 98d4 352f
00000070: 559c 332f 0d26 812e 1ccb 452f 1a16 8a2f
00000080: d262 162e 9754 ef2f 485e ed2e 1271 1730
00000090: 1a8d 082d 5ec5 9d2e 0ddb de2e d375 822f
000000a0: c141 a12d 5f31 582f 7847 fa2e e360 ee2d
000000b0: 04d7 af2e 513b 162e aed1 392f 6a71 ea2d
000000c0: 2b75 d92e 8c53 942e 74d3 372f 4916 a62e
000000d0: beef f82d 8b6f 6d2e 0437 bc2e f4d5 742e
000000e0: 8f11 9d2e b5fc 992f d854 ec2e 25cc 9f2d
000000f0: 03bd a62e 9741 052f f659 8d2e f1cd 982e
00000100: 6d00 942f 4988 7e2f a66c 102f 7486 722f
00000110: 98e9 b62f 42fc 972f 12c2 402f 8f40 022e
00000120: 76cb 002f e083 402d cabf 162f 4a32 e32e
00000130: ee49 052e 10d2 732e 2dcf f92e aea8 c52e
00000140: 861a b82e 5c6e 562e b3e5 962e 659a 492f
00000150: bc80 8a2d cab4 da2e 465e 5f30 e343 c52e
00000160: 1bc4 612e 6e2e 642e b0b6 c82f 4395 842e
00000170: a691 ef2e 3307 6b2d 9812 a42f 1ae2 862e
00000180: db19 0e2f e740 0e2f 60d9 0a2e ca7c 142f
00000190: 4630 992e 6a26 012f 50db bf2f 8b7e 532f
000001a0: 7bf3 282f 3c55 5931 a8fd 6930 c88d 1032
000001b0: 0984 122f fb7a 1c30 0259 a62f d862 f330
000001c0: 933f 0b30 6fec bc30 19ba 712e 3610 b12f
000001d0: 5603 9b2e 7382 7f30 ed1f d22f 6e74 b831
000001e0: 2524 5e30 c6c4 342f f537 4030 94f0 5f2e
000001f0: 2281 4d2e 416f 742e 74d3 f42f f46a 3a2f
00000200: b68f ae30 5472 4b30 7827 a430 c049 6f2f
00000210: 8fba 662f e8ab de30 46ed 562f 40fb e430
00000220: f424 fa2c 9f90 6330 e0d8 9c2f d1e1 fb30
00000230: 6d39 fb2d 1c17 0431 698f 7530 fd53 632e
00000240: a0c7 a12f 7801 612f 83fe 4a30 5cc8 362e
00000250: d71a 7d30 a92f 4330 1b66 b42e 36d3 ba2f
00000260: fa5c 632f afa6 c42f 1f41 992e f421 0b2d
00000270: 2735 4730 24e6 9130 b869 4930 9d8d 902e
00000280: a104 a72f 861c 2f30 3dd7 9f2f 9c69 3b2e
00000290: 25b4 ea30 dd61 1731 5f4b 1d30 1fd2 d930
000002a0: 5e0e 5a31 6b2b 0831 3f67 752e 9439 612f
000002b0: 678d 4d2f 0580 c02d a373 a330 04bb 1530
000002c0: 1dc0 b52e a535 e72e a481 ba2f dbbb 8b2e
000002d0: daff 0430 93d0 bc2e e017 9a2f d981 9f30
000002e0: 3df1 7e2f f568 5030 e60e 5c30 58dd 1f30
000002f0: e9f3 522f 85f1 682f 8eaf 6f31 a256 aa2f
00000300: 20dc 3a2f fd09 0c2f d326 e830 1cf9 392f
00000310: 3e42 542e dff4 9f2e 2210 042d 9dce a72f
00000320: 0d25 1d30 f64d 8030 8386 2830 3c5c 0e30
00000330: 9a08 8c2f 0a8b 3831 d791 f630 06bb d431
00000340: 2420 1530 d8be 3531 5301 5b2f 2b60 d830
00000350: 2979 a22f de7e 9530 b54a 2730 9c3e 4430
00000360: eef2 e92e 64e4 2030 43e8 df2f 48a8 9d31
00000370: 8ef9 9430 c2d6 6a2f f819 3830 1e1e fd2f
00000380: 4e1d 242f 2082 0430 94da 7e30 4722 6630
00000390: f3cc 6530 3b73 fd2f e77e cf30 d286 8630
000003a0: ed68 882f fbe9 5031 c306 a92e e0d5 9831
000003b0: fe70 a22e af65 c12f 68ae 5730 be72 eb30
000003c0: 85ec 182f fc60 4230 ea71 4430 8f91 a72e
000003d0: 5d13 062f 33a3 5c2f a071 f330 8c6a cf2f
000003e0: 0330 c62f 9041 4b30 0c13 4a30 8f1b 3f30
000003f0: 311e 692f cd03 d82f 1669 a62f cd8a 072f
4.153139e-11 1.440478e-10 4.1810746e-11 1.7811959e-10 1.189236e-10 3.282531e-10 2.1254035e-10 8.107932e-10
1.2549868e-10 4.5671017e-10 5.3027586e-11 2.2604231e-10 5.3533986e-11 1.312958e-10 1.2633777e-10 4.1587805e-10
2.8138027e-11 9.16845e-11 2.7911971e-11 5.7324673e-10 8.203771e-11 2.6454696e-11 9.020392e-11 9.361077e-11
2.1889353e-11 9.748935e-11 9.938553e-11 1.6537383e-10 1.6335495e-10 5.873e-11 1.7989205e-10 2.5117758e-10
3.419382e-11 4.3533951e-10 1.079426e-10 5.509416e-10 7.762036e-12 7.174593e-11 1.01343024e-10 2.3730581e-10
1.8332781e-11 1.9662626e-10 1.1381379e-10 2.7100494e-11 7.996273e-11 3.4158735e-11 1.6900145e-10 2.6653086e-11
9.888831e-11 6.745102e-11 1.6718876e-10 7.552765e-11 2.8300803e-11 5.398663e-11 8.559023e-11 5.5669205e-11
7.1426524e-11 2.8010097e-10 1.0747109e-10 1.8166866e-11 7.582381e-11 1.2119582e-10 6.427918e-11 6.948742e-11
2.6921346e-10 2.3149584e-10 1.3135323e-10 2.2057539e-10 3.3271585e-10 2.764598e-10 1.7531246e-10 2.9615917e-11
1.1713816e-10 1.09432186e-11 1.3710558e-10 1.0331698e-10 3.030636e-11 5.5438376e-11 1.1360011e-10 8.988486e-11
8.372063e-11 4.8755985e-11 6.862013e-11 1.8335695e-10 1.5745953e-11 9.945607e-11 8.12609e-10 8.970582e-11
5.1333254e-11 5.1882436e-11 3.6509595e-10 6.029179e-11 1.0894334e-10 1.3359802e-11 2.9844638e-10 6.133778e-11
1.292401e-10 1.2937883e-10 3.1570635e-11 1.3504856e-10 6.9662096e-11 1.1746129e-10 3.4898529e-10 1.9235295e-10
1.5366013e-10 3.1626106e-09 8.5125373e-10 8.4141405e-09 1.3325531e-10 5.6927235e-10 3.0258468e-10 1.770867e-09
5.065825e-10 1.3745999e-09 5.4962344e-11 3.220763e-10 7.0491765e-11 9.295384e-10 3.8221462e-10 5.3683413e-09
8.0814494e-10 1.6440813e-10 6.9928713e-10 5.0918006e-11 4.6726296e-11 5.557799e-11 4.4533588e-10 1.6954599e-10
1.2701011e-09 7.401344e-10 1.1943788e-09 2.1763125e-10 2.0984657e-10 1.6201485e-09 1.9547483e-10 1.6660593e-09
7.10953e-12 8.278764e-10 2.8530334e-10 1.8326834e-09 2.8560898e-11 1.9221664e-09 8.933428e-10 5.168842e-11
2.9427571e-10 2.0464153e-10 7.3848855e-10 4.1559964e-11 9.2079006e-10 7.1008316e-10 8.20359e-11 3.3983277e-10
2.0678562e-10 3.5770628e-10 6.969202e-11 7.908774e-12 7.247131e-10 1.0615548e-09 7.327361e-10 6.5735174e-11
3.0380412e-10 6.3705163e-10 2.9074868e-10 4.2612677e-11 1.7076941e-09 2.202902e-09 5.7223376e-10 1.5848548e-09
3.1731342e-09 1.9815285e-09 5.579825e-11 2.0484087e-10 1.8694878e-10 2.1884725e-11 1.1892677e-09 5.447165e-10
8.265053e-11 1.0514193e-10 3.3925318e-10 6.354358e-11 4.8384907e-10 8.5863004e-11 2.80294e-10 1.1605678e-09
2.318687e-10 7.581911e-10 8.0056706e-10 5.815841e-10 1.9186043e-10 2.1186082e-10 3.4878869e-09 3.0984376e-10
1.6994806e-10 1.2736474e-10 1.6891256e-09 1.6914153e-10 4.8262054e-11 7.273981e-11 7.5069135e-12 3.052393e-10
5.716892e-10 9.335384e-10 6.1309197e-10 5.179037e-10 2.5471963e-10 2.6854559e-09 1.7940306e-09 6.191274e-09
5.425156e-10 2.6447449e-09 1.9918404e-10 1.5743401e-09 2.9553718e-10 1.0877235e-09 6.086041e-10 7.139336e-10
1.0638766e-10 5.8532224e-10 4.0728496e-10 4.5884327e-09 1.0839345e-09 2.1358473e-10 6.6975714e-10 4.6041831e-10
1.4926124e-10 4.820624e-10 9.271528e-10 8.3722224e-10 8.3600965e-10 4.6102308e-10 1.50973e-09 9.788101e-10
2.481281e-10 3.0400986e-09 7.6864314e-11 4.448097e-09 7.3869785e-11 3.5178746e-10 7.846439e-10 1.7131112e-09
1.3908348e-10 7.071461e-10 7.1466266e-10 7.620137e-11 1.2194108e-10 2.0066863e-10 1.7712871e-09 3.7728787e-10
3.6050105e-10 7.394414e-10 7.351424e-10 6.952456e-10 2.1201953e-10 3.9292872e-10 3.0269892e-10 1.232749e-10

exp_avg f4 [64, 64]
00000000: b866 0c32 e5a0 8938 3fe1 cf37 ace5 50b9
00000010: a241 90b8 efa6 e438 e4f3 3c38 4db9 46b9
00000020: 2786 18b8 c4e6 1f39 a0ed 56b9 ea78 0ab9
00000030: 7969 e038 ecdc f1b7 2e31 3ab7 bdfe 1139
00000040: ad05 0e38 6f63 5eb7 1f92 74b8 a2a2 1cb7
00000050: 9717 10b9 4ec0 97b8 6d55 f738 de0d 3cb9
00000060: 4b3f de38 f74a 9438 b308 12b8 8255 1f38
00000070: b8fa 1c38 c040 c3b6 defa 5138 b519 b937
00000080: 63ef 10b8 adc6 96b6 ede9 d3b8 4312 9eb7
00000090: ec6a 96b7 03dd a5b8 f49f 2e38 174a c136
000000a0: 6cff 39b9 b5ba 6e38 a5a5 c335 ac34 8838
000000b0: 103e 8cb7 74dc 3c39 a201 8638 443f b2b8
000000c0: 0e70 eeb8 d983 1639 577b 9d38 ca9c d938
000000d0: e86a 9235 c13e 0a38 2853 bb37 a9bc 93b8
000000e0: 24eb 2f39 7cb3 00b9 68bc f338 6a82 b438
000000f0: b83f 47b9 d320 0438 fc65 3434 acdb 85b8
00000100: 05c6 a6b7 456a 9938 507e 5b39 4fa1 24b9
00000110: ec77 9e36 43c0 7537 f4a8 a638 7d5a 9eb9
00000120: 74c5 2a39 9198 2839 d3e8 09b9 5119 0e38
00000130: 4188 5239 a134 3b38 2e2d 0eb9 3944 2c39
00000140: 2b62 fe38 72ba 5cb9 6d6b 12b9 b9dc 5f39
00000150: a179 0ab9 e322 75b9 39c3 ec39 ceee d6b9
00000160: c3b1 29b9 37a3 f638 f180 5e39 2dbf 8837
00000170: 1ab7 4139 9c00 c339 feba 6bb8 5862 67b9
00000180: 0223 41b9 b90a 9eb7 9a7e 8f37 ca79 7f38
00000190: 31c6 53b9 358e 1db9 b7f0 61b9 3b03 f9b7
000001a0: 1aae 77b9 b8b5 8d39 44ce 54b9 a118 dc38
000001b0: 0461 3cb8 11c2 5b39 e4e5 47b8 a45c 49b6
000001c0: 8e7e 0eb8 ecae 97b7 bdc2 bd38 21f9 dc37
000001d0: 3cf2 29b9 61e4 bb37 5413 1139 679e bbb9
000001e0: 5053 cab7 9788 27b9 cf15 7738 cb65 7938
000001f0: 03dd 6eb9 4a05 76b9 2280 c8b8 c20a 11b9
00000200: f947 8bb9 f834 68b9 8479 b139 b41a 23ba
00000210: 6e42 77b9 580d fe39 acdf aa39 8fb3 08ba
00000220: 9885 ad38 1ade 8a39 155c d9b9 978c 16ba
00000230: c2a7 8a39 3eb4 84b8 2aac 07b9 ca70 ba39
00000240: b899 7c39 41e2 eab9 bede 7eb9 dafd 3839
00000250: d487 6cb9 2b14 8db9 6866 213a 46c4 20ba
00000260: 35ad 8939 3186 1239 15e8 7039 9728 10b8
00000270: aef2 9d38 c353 0f3a a075 8839 a435 df38
00000280: 48a3 acb8 d14e 4db9 28bd eab9 52b8 01b9
00000290: 2ba2 98b9 e022 0db8 d5fe 9638 f8ab 4339
000002a0: 9185 18ba 8869 3839 77a7 6938 c4b2 a239
000002b0: 445d 1937 06d1 d639 ce74 9838 bd00 6c39
000002c0: b83f 14b9 3c40 ba39 0c14 6339 d31f 7839
000002d0: b638 2cb9 8d9a 4fb9 412b 4238 61e1 13ba
000002e0: 41fd 093a b03d 8fb9 ebee 4839 97a2 8939
000002f0: 81f6 16ba 9757 a238 f0a1 b7b9 17bf 9ab9
00000300: 66eb b739 4b73 4638 1ea8 91b9 d1fa d13a
00000310: 8e6d 4e3a 897a aaba 4dd8 47ba 5000 c93a
00000320: 9dfe 6d39 e397 7eba f19e a63a 288a c13a
00000330: 0e7b 6fba 1c5e 9d39 2e93 9f38 62ca b2ba
00000340: b338 f7b9 e758 bb39 d327 533a 7c64 aeb9
00000350: beeb 763a fc8d f039 087b aeba 9acd 033b
00000360: 738a 63ba 4c1c 3bba bb3b 82b9 ef4c fbb8
00000370: ee00 39b8 97fc c2b9 524a 75ba 22f1 25ba
00000380: dae7 0f39 3a16 8a39 3994 743a 67df e239
00000390: 18d4 c238 1084 593a 8bc9 f5b9 be99 1bba
000003a0: 8b03 ca3a 41a1 09ba 4564 d8b9 86f0 9bba
000003b0: a451 3ab9 5e01 b4ba 1eea 36ba ad68 eb39
000003c0: a299 eb39 a64e c0ba 0d83 50ba 25ca 7cba
000003d0: 5075 3eb9 4841 ab38 37cd 3439 dc12 5c3a
000003e0: 91a3 11bb 3af7 3b3a 41bc a2ba a9f8 5cba
000003f0: 6492 e03a 05d9 18ba 4b95 113a 25ce 1b3a
8.172428e-09 6.562638e-05 2.4781211e-05 -0.00019921985 -6.87868e-05 0.00010902981 4.5049834e-05 -0.00018951781
-3.6364563e-05 0.00015249389 -0.00020497153 -0.0001320575 0.00010700798 -2.8832314e-05 -1.10979145e-05 0.00013923175
3.3860724e-05 -1.3255382e-05 -5.831022e-05 -9.3361905e-06 -0.00013741698 -7.2360606e-05 0.000117937896 -0.00017934243
0.00010597574 7.071153e-05 -3.4817214e-05 3.798819e-05 3.74268e-05 -5.8189908e-06 5.006312e-05 2.206569e-05
-3.455522e-05 -4.4934773e-06 -0.00010104836 -1.8843572e-05 -1.7931183e-05 -7.90898e-05 4.16338e-05 5.7604734e-06
-0.00017738127 5.6917506e-05 1.4576841e-06 6.494796e-05 -1.67182e-05 0.00018011202 6.389922e-05 -8.4994856e-05
-0.00011369596 0.00014354232 7.509317e-05 0.000103765706 1.0908961e-06 3.2960208e-05 2.233086e-05 -7.044647e-05
0.00016776897 -0.00012273894 0.00011622236 8.60736e-05 -0.00019001856 3.1501822e-05 1.6800908e-07 -6.382851e-05
-1.9880952e-05 7.315403e-05 0.00020932523 -0.00015700351 4.7227277e-06 1.4647902e-05 7.946967e-05 -0.00030203527
0.0001628602 0.00016078564 -0.00013152072 3.3879016e-05 0.00020077919 4.463329e-05 -0.00013559006 0.00016428613
0.00012129949 -0.00021050291 -0.00013963664 0.00021349163 -0.00013206016 -0.00023378017 0.0004515888 -0.00040995184
-0.00016183317 0.00011760595 0.00021219604 1.6301487e-05 0.00018474125 0.00037193752 -5.6202516e-05 -0.00022066513
-0.00018418956 -1.884006e-05 1.7105882e-05 6.0910163e-05 -0.0002019636 -0.00015025663 -0.00021547345 -2.9684617e-05
-0.00023620614 0.00027029007 -0.00020294735 0.00010495005 -4.4913046e-05 0.00020957763 -4.76594e-05 -3.0005258e-06
-3.39733e-05 -1.8082057e-05 9.048495e-05 2.6342053e-05 -0.00016207335 2.2398484e-05 0.00013835478 -0.00035785438
-2.4119072e-05 -0.00015977245 5.89097e-05 5.946103e-05 -0.00022779782 -0.00023462359 -9.56061e-05 -0.00013832285
-0.0002656577 -0.00022144977 0.00033850607 -0.00062219356 -0.00023580503 0.00048456597 0.00032591575 -0.00052147446
8.2741666e-05 0.0002648689 -0.00041458072 -0.00057429954 0.000264464 -6.327823e-05 -0.0001293874 0.0003556072
0.00024089857 -0.0004480053 -0.00024306306 0.00017642174 -0.00022557314 -0.00026908642 0.00061569223 -0.00061327626
0.00026259726 0.00013973635 0.00022974641 -3.4370078e-05 7.531546e-05 0.00054674986 0.0002602758 0.0001064346
-8.2320126e-05 -0.00019579685 -0.0004477289 -0.00012371063 -0.00029112524 -3.36495e-05 7.2000235e-05 0.00018660713
-0.0005818243 0.00017586921 5.5707493e-05 0.0003103224 9.141226e-06 0.00040972995 7.2696814e-05 0.00022506989
-0.00014138117 0.00035524543 0.00021655875 0.00023662978 -0.00016424325 -0.00019798633 4.6293488e-05 -0.0005641189
0.0005263873 -0.00027321046 0.0001916249 0.00026251815 -0.0005758778 7.741077e-05 -0.00035025133 -0.00029515542
0.00035079865 4.7314254e-05 -0.00027781812 0.0016020184 0.0007874601 -0.0013006489 -0.0007623479 0.0015335176
0.00022696932 -0.0009711964 0.0012712163 0.0014765905 -0.0009135463 0.0003001549 7.609125e-05 -0.0013640637
-0.00047153755 0.00035733657 0.00080549455 -0.00033262733 0.00094192836 0.00045882154 -0.0013311813 0.0020111562
-0.00086799933 -0.00071377004 -0.00024840035 -0.00011982943 -4.4108303e-05 -0.00037190758 -0.0009357083 -0.0006330182
0.00013723914 0.0002633797 0.0009329948 0.00043272527 9.2901464e-05 0.0008297572 -0.00046880203 -0.000593569
0.0015412433 -0.0005250164 -0.00041273437 -0.0011897243 -0.00017768756 -0.0013733318 -0.0006977635 0.00044900682
0.00044937158 -0.0014671877 -0.00079540984 -0.0009643159 -0.00018163514 8.166075e-05 0.00017242586 0.0008395144
-0.0022222737 0.00071703235 -0.0012415723 -0.0008429387 0.0017133472 -0.0005830678 0.00055535574 0.00059434987

exp_avg_sq f4 [64, 64]
00000000: ef07 4731 2e9e 9b30 951a 8f30 626a dc32
00000010: b204 2b32 b886 9532 e256 b131 1d86 8832
00000020: 72d5 0231 4359 0332 92e2 6132 f3af 9232
00000030: 1a72 cb31 be66 b130 14b6 3a30 287c 5532
00000040: 1472 1531 03d7 ae30 74cb e331 c4d8 5e30
00000050: 442c b231 460a 2331 d1da 5932 be02 e432
00000060: 437c fb31 bdac b931 8403 8930 2a2b fa30
00000070: 6291 1230 222b 4931 4bba 1932 d6c2 9231
00000080: dff5 1130 10b0 e530 47ed 0932 507b 7631
00000090: e006 5130 27ee e831 4816 3231 582e 7231
000000a0: 6d1e ab32 5d0f 9230 43fa b631 d5f9 6632
000000b0: 612a a62f 1170 6f32 d2be 4c31 a594 ff30
000000c0: ff94 0231 160d 9132 ee66 9f31 53a4 dc31
000000d0: b6c6 9030 89ff 8c30 9ee9 5030 4e18 b731
000000e0: 86b0 1433 faf5 8c31 4034 2132 9acb e731
000000f0: 4971 c732 43f1 8b31 095e 9831 7306 3f31
00000100: 68f7 1732 abaf a131 b979 a331 e971 d733
00000110: 550a 3b33 12c7 a733 7818 c032 8161 a033
00000120: ab82 5b32 207d 1b33 3df8 7033 66d4 af33
00000130: 0c19 dd32 2a3b ed31 e241 ca30 5ce6 5f33
00000140: bf21 0932 6fe3 d431 075c 0a33 9b63 a931
00000150: 5fe0 dc32 f6f0 db31 e9e1 7233 baec ff33
00000160: cf4d 1133 fb88 d432 9a39 9b31 307f e031
00000170: 9831 6a31 c644 8732 8e85 0833 58e8 c432
00000180: 8cdc 5631 c80e 1e32 787b 1d33 22be 9d32
00000190: ca1e e931 291f 2433 9841 8c32 b9c0 7c32
000001a0: 76cb ba33 3d57 0b32 9e37 9b32 6b3b 8933
000001b0: 5086 a630 425c 7233 a330 8532 08c2 5b32
000001c0: 92fa 1f32 ffdf 9e33 09ac b432 3b2d 0733
000001d0: 6860 2432 9851 9131 70d3 cc31 5d0b c732
000001e0: 60b8 3034 f974 a532 abbb 4933 0a1c e532
000001f0: 105b d133 a729 ff32 5d6c 9932 ac12 4b32
00000200: 3d28 8932 bd56 0c32 caa5 0c32 dd1f 2f34
00000210: c67e be33 98a1 0134 b834 0d33 151e f333
00000220: 022d ac32 97f5 3f33 211d ac33 840b ed33
00000230: e504 5933 4d67 3b32 e62f 1d31 6d41 b033
00000240: 0949 3932 4e85 9232 b6ec 7233 d5ff b231
00000250: c3de 0733 1e5a 4d32 f95b d233 99bf 5334
00000260: 867b 5233 d2fb 3d33 8315 f031 5c4d 4932
00000270: 2f35 c231 c094 0033 112c 7133 7550 cf32
00000280: 70a4 8f31 1cad b232 83ef 7e33 3a88 0e33
00000290: cfe2 7732 0398 8033 95e4 6b32 aecd 8d32
000002a0: 99e5 2034 f518 3f32 4557 1e33 6266 eb33
000002b0: 46bc 0d31 c44a c733 4ce1 cc32 cc42 bf32
000002c0: 422e 6f32 a3ea db33 6356 f432 f022 4933
000002d0: 2bf3 8632 32bd fe31 c1cd 7b31 287b 4b33
000002e0: 6177 7534 b55a 0233 0aa9 8e33 6b17 2c33
000002f0: d503 2434 9d35 4033 fa41 0f33 662f ae32
00000300: 1253 8933 f77f a632 4a44 eb32 f528 5835
00000310: 009c 8434 db5f 1c35 e074 4234 c611 1835
00000320: 3aed 5f33 5d42 8e34 5169 e434 ca79 2135
00000330: 1753 3634 2de1 d632 83b1 e731 910b cc34
00000340: 6ac1 9433 14aa 4733 f77f 7734 79dd c132
00000350: b4c6 4634 b6af 5833 e093 f534 f7a2 7a35
00000360: de85 7134 254f 2c34 b6e6 b032 59df 8932
00000370: 473a df31 ba3e 7733 4b56 7234 26b2 0334
00000380: 8a94 8531 ad23 1433 d8a4 9434 5a08 c533
00000390: fd60 1f32 4ac7 6434 3226 9433 342d d233
000003a0: da1d 3735 0fdc 5133 1d08 b633 c49a dc34
000003b0: efb1 9a31 7dbe f034 6fc8 dd33 1a84 0733
000003c0: 6e90 4b33 2288 1635 48e0 2c34 feb3 6434
000003d0: 3bd9 0e33 1181 0133 7315 6a32 4d57 3634
000003e0: ed53 9e35 b4c5 2734 7f14 a534 4f42 6634
000003f0: b2ed 5035 045f 0034 7a59 0434 09ce c733
2.896282e-09 1.1322692e-09 1.0412174e-09 2.5659748e-08 9.954578e-09 1.7407146e-08 5.1612554e-09 1.5893471e-08
1.903882e-09 7.645499e-09 1.314824e-08 1.707665e-08 5.9210494e-09 1.2907646e-09 6.7925154e-10 1.2426462e-08
2.17472e-09 1.2721276e-09 6.6296995e-09 8.107117e-10 5.1855142e-09 2.3725462e-09 1.26808155e-08 2.654394e-08
7.3191884e-09 5.4038467e-09 9.969061e-10 1.8202162e-09 5.332109e-10 2.9273868e-09 8.94813e-09 4.2713095e-09
5.3100097e-10 1.6711983e-09 8.0284e-09 3.5867807e-09 7.6043527e-10 6.7791635e-09 2.5915075e-09 3.5241978e-09
1.9920856e-08 1.0627265e-09 5.3253486e-09 1.3444567e-08 3.0225336e-10 1.3937112e-08 2.9794376e-09 1.8595939e-09
1.9002184e-09 1.6886172e-08 4.639211e-09 6.421524e-09 1.0533856e-09 1.0258968e-09 7.600195e-10 5.328764e-09
3.4619482e-08 4.1025006e-09 9.383314e-09 6.7461317e-09 2.3218165e-08 4.0728607e-09 4.434473e-09 2.7797824e-09
8.8456105e-09 4.705688e-09 4.7577626e-09 1.0032438e-07 4.3548727e-08 7.812754e-08 2.2362869e-08 7.4683165e-08
1.2777188e-08 3.620255e-08 5.6105126e-08 8.1877076e-08 2.5739176e-08 6.904334e-09 1.4716159e-09 5.2130744e-08
7.9821225e-09 6.1958683e-09 3.2214327e-08 4.929871e-09 2.5713403e-08 6.401133e-09 5.655048e-08 1.1917423e-07
3.383121e-08 2.474234e-08 4.5176423e-09 6.5337176e-09 3.4079672e-09 1.5747343e-08 3.1786435e-08 2.292306e-08
3.1266465e-09 9.200171e-09 3.6666705e-08 1.8363668e-08 6.784693e-09 3.8212566e-08 1.6327974e-08 1.4712151e-08
8.698309e-08 8.1107006e-09 1.8069667e-08 6.390368e-08 1.2116264e-09 5.6428924e-08 1.5505355e-08 1.2791595e-08
9.311991e-09 7.398193e-08 2.103299e-08 3.1473274e-08 9.567977e-09 4.2293316e-09 5.961219e-09 2.3171816e-08
1.6458353e-07 1.9261721e-08 4.6969642e-08 2.667186e-08 9.748885e-08 2.9704848e-08 1.7860822e-08 1.1820401e-08
1.5967197e-08 8.1687945e-09 8.186769e-09 1.6309737e-07 8.8706244e-08 1.2072849e-07 3.2877068e-08 1.1321041e-07
2.0043903e-08 4.4694016e-08 8.014673e-08 1.1038267e-07 5.05287e-08 1.09083205e-08 2.2873734e-09 8.2075395e-08
1.07850235e-08 1.7057257e-08 5.6560303e-08 5.2095666e-09 3.1634737e-08 1.1953061e-08 9.795617e-08 1.9720609e-07
4.900678e-08 4.423402e-08 6.987365e-09 1.1717329e-08 5.6521894e-09 2.993761e-08 5.6152263e-08 2.413456e-08
4.180542e-09 2.0800648e-08 5.9356818e-08 3.318585e-08 1.44288625e-08 5.988115e-08 1.3730774e-08 1.6508093e-08
1.4984688e-07 1.1123338e-08 3.6866613e-08 1.09616636e-07 2.0625222e-09 9.2802594e-08 2.3851179e-08 2.2265702e-08
1.3922149e-08 1.02406624e-07 2.8444623e-08 4.6830735e-08 1.5710233e-08 7.413882e-09 3.6642265e-09 4.737663e-08
2.2860833e-07 3.035048e-08 6.643138e-08 4.006817e-08 1.5275084e-07 4.4752245e-08 3.3354787e-08 2.027782e-08
6.39467e-08 1.9383135e-08 2.7388655e-08 8.052587e-07 2.470042e-07 5.8254017e-07 1.8110177e-07 5.6650276e-07
5.213699e-08 2.6497847e-07 4.2544937e-07 6.01544e-07 1.6980299e-07 2.5015277e-08 6.7431656e-09 3.8006377e-07
6.926969e-08 4.6487983e-08 2.3050221e-07 2.2568871e-08 1.8512475e-07 5.0451227e-08 4.57424e-07 9.33694e-07
2.2493575e-07 1.6047541e-07 2.0594012e-08 1.6050466e-08 6.4967796e-09 5.756622e-08 2.25694e-07 1.2265136e-07
3.8876964e-09 3.4491382e-08 2.7687088e-07 9.1750465e-08 9.277071e-09 2.1306656e-07 6.898735e-08 9.7871094e-08
6.821625e-07 4.8861747e-08 8.476511e-08 4.10908e-07 4.5022186e-09 4.4842082e-07 1.0327573e-07 3.1552283e-08
4.739598e-08 5.6077454e-07 1.6100341e-07 2.1299635e-07 3.325952e-08 3.015254e-08 1.362547e-08 1.698183e-07
1.1796343e-06 1.5625011e-07 3.0748558e-07 2.1444542e-07 7.783193e-07 1.1955495e-07 1.232601e-07 9.304137e-08

exp_avg f4 [64]
00000000: cf25 21ba 3c2b 22ba 9a99 0dbb 1743 e03b
00000010: 5a98 2bb9 fc94 82bb 5b90 57bb 6a83 cb3b
00000020: 09ff a4b9 72d9 98bb eed5 cc3a 0f69 d93b
00000030: 5411 f6ba c917 093b 8188 903a 3162 1abb
00000040: d90c a0ba c772 4138 5635 6f3a 9161 58ba
00000050: adbd 8a3b 8403 c83a bee2 76bb d2fd 173b
00000060: f0f2 98bb b6a3 fcba 3021 0abb 6e87 4ebb
00000070: cedb 10ba ad9b 4e3b ba8c ca39 5e6d 3dbb
00000080: 7849 e63a a51e a5ba b070 c83b a6a7 b63a
00000090: dd00 d03a 413a 6f3a b399 90ba afbc e6ba
000000a0: be07 843b ace6 6bbb c007 94b8 5172 093b
000000b0: e73c 51ba 6d06 e1ba d172 78bb bebe b6ba
000000c0: 3641 353b c4b2 c0bb 71d4 95bb b17a 98ba
000000d0: fc60 3e39 ba30 26ba e36d cfba 971f 463b
000000e0: f67e 8bbb 3ff9 993b a827 1bbb d205 93bb
000000f0: c267 4f3b 84b6 e73a ccb0 9d3b 3b0e 143b
-0.00061472965 -0.0006186252 -0.0021606446 0.006843935 -0.00016364586 -0.0039850455 -0.003289244 0.006210734
-0.00031470534 -0.0046645934 0.0015627721 0.0066348384 -0.0018773475 0.0020918718 0.001102701 -0.0023557062
-0.001221086 4.612168e-05 0.0009125074 -0.00082542846 0.004234037 0.0015259837 -0.003767177 0.002319206
-0.0046676323 -0.0019274864 -0.002107691 -0.0031513828 -0.00055259175 0.0031525895 0.00038633292 -0.00289043
0.0017569503 -0.0012597634 0.006116949 0.0013935461 0.0015869398 0.0009125807 -0.0011032134 -0.001760384
0.0040292433 -0.0035995645 -7.0586335e-05 0.002097268 -0.00079817924 -0.0017168053 -0.0037910233 -0.0013942344
0.0027657277 -0.0058806855 -0.004572444 -0.0011633245 0.00018155942 -0.0006339658 -0.0015825595 0.0030231231
-0.0042570783 0.004698902 -0.002367476 -0.004486778 0.0031647538 0.0017678295 0.0048123356 0.002259149
