Practice5/logs/lightning_logs/version_0/checkpoints/epoch=2-step=1575.ckpt (torch, 66651 bytes, 4 tensors)

l1.weight f4 [10, 784]
0.0085521415 0.011709176 0.023824308 -0.0205945 -0.02776117 0.0030202158 -0.021175258 -0.013150787
-0.027199175 0.029203262 0.025062457 -0.00857332 0.032921996 0.016254388 -0.029757489 -0.0031265058
-0.019019183 -0.026671756 0.030832183 -0.034530547 -0.006012801 0.024330013 -0.016710142 -0.018701643
-0.003421057 -0.018045878 -0.027033985 0.02720156 0.035664942 0.018670253 -0.009514473 0.012482852
0.0013989583 -0.02722148 -0.0064827893 0.0070016608 -0.021199074 0.027106915 -0.033514194 -0.025455931
-0.015346196 0.03184176 -0.031158883 -0.0059428047 0.0057321526 -0.0023120828 -0.0065515433 0.011553768
-0.02369928 0.010808371 -0.022371387 -0.031294234 0.020831455 -0.030241499 0.0072106794 0.015835825
-0.02813455 -0.028874978 0.035110984 0.027537312 0.01564189 -0.014217207 -0.008663002 0.0056777634
-0.009675469 0.03427713 -0.010116361 0.004881341 -0.03182494 0.008571327 -0.008377697 0.005255144
0.031775367 -0.021675315 0.019563764 -0.027088244 0.0003982745 0.021518767 -0.029329488 0.009490445
0.014044397 -0.008479485 -0.0035773814 0.009811159 -0.0019077882 0.030375537 -0.027213082 -0.0049224887
-0.015260242 -0.004172422 -0.032053076 -0.014152085 0.01986866 0.01098077 -0.022256963 0.029230606
-0.02984867 -0.029105967 -0.009983595 -0.021256912 -0.00045385768 0.0264106 0.01967638 -0.0032045108
0.02723397 0.021660164 -0.016684217 0.02397298 0.03503004 0.008782055 -0.021473546 0.0059260987
0.030577142 -0.014148628 -0.031063579 -0.017616086 0.033039544 -0.005830437 -0.022864118 -0.010189423
0.031597596 0.03215978 -0.02410322 0.014257687 0.022690414 -0.02692705 -0.0121324 -0.012313118
-0.029018095 -0.02358206 0.0341983 0.013660426 0.031680692 -0.022898525 0.019216835 -0.005724894
0.02689704 0.014884628 0.0057274327 0.0013299324 -0.0012960769 0.023846868 0.0019211099 -0.015192475
-0.03426827 0.03129792 0.011205263 0.03234796 0.03380313 -0.02780937 0.01876293 -0.054206647
-0.064857855 -0.041736774 -0.008537024 -0.042549968 -0.045958787 0.0029916952 -0.061753258 -0.020321626
-0.03997504 -0.022261612 -0.002794303 -0.01870304 0.009615131 -0.009899059 -0.011499768 0.022270184
0.034228202 0.02988946 -0.029483307 -0.001057718 0.011260949 0.021634053 0.027357567 -0.01297551
0.01142364 -0.026843518 -0.0327446 -0.04571221 -0.022358052 -0.045836575 -0.06386481 -0.057272322
-0.08036616 -0.01750161 -0.04166438 -0.04870792 -0.019673726 -0.021016471 2.3022294e-06 0.015018728
0.009073265 -0.023705032 0.0039654598 -0.021232005 0.020914119 -0.0061608125 0.022987235 0.034512002
0.01784607 0.030274455 0.013758805 -0.016631242 -0.024253651 -0.006501161 -0.07047694 -0.045834117
-0.043968912 -0.060028005 -0.018413689 -0.080885336 -0.019392777 -0.042528216 0.00562939 -0.054116298
-0.012953583 0.03154617 0.008476556 -0.025661997 0.026568733 0.020722453 -0.027838875 -0.03058314
-0.027151253 0.018461507 0.020908773 -0.017932974 -0.031823933 -0.007970372 0.0011054575 -0.022361174
-0.006065207 -0.050023843 -0.06442418 -0.033777863 -0.037711095 -0.031602733 -0.027357638 -0.07985744
-0.047638234 0.013368254 -0.037809312 -0.057155646 -0.027575256 -0.011151828 0.010372433 0.009819835
-0.018332087 0.017344479 -0.011520915 0.013505444 -0.011637999 0.028679583 0.018252209 -0.028542154
00000000: 481e 0c3c d8d7 3f3c 322b c33c ccb5 a8bc
00000010: 656b e3bc d0ee 453b bc77 adbc 6676 57bc
00000020: ced0 debc ae3b ef3c c84f cd3c 1c77 0cbc
00000030: 37d9 063d ec27 853c fac5 f3bc 10e6 4cbb
00000040: 1ece 9bbc ba7e dabc c693 fc3c e76f 0dbd
00000050: 0807 c5bb bc4f c73c b5e3 88bc 3034 99bc
00000060: d033 60bb f3d4 93bc 6076 ddbc ced5 de3c
00000070: 6715 123d 5cf2 983c 98e2 1bbc e084 4c3c
00000080: 405d b73a 95ff debc 946d d4bb 306e e53b
00000090: aea9 adbc 520f de3c 2e46 09bd f588 d0bc
000000a0: 9c6e 7bbc 816c 023d ea40 ffbc dcbb c2bb
000000b0: c8d4 bb3b 5086 17bb 54ae d6bb 044c 3d3c
000000c0: fe24 c2bc 9815 313c 3344 b7bc 622e 00bd
000000d0: baa6 aa3c 05bd f7bc 9047 ec3b 22ba 813c
000000e0: 6e7a e6bc 388b ecbc 89d0 0f3d ee95 e13c
000000f0: 6c23 803c 4aef 68bc 44ef 0dbc 880c ba3b
00000100: dc85 1ebc 2d66 0c3d 18bf 25bc a8f3 9f3b
00000110: de5a 02bd c06e 0c3c 9c42 09bc 5833 ac3b
00000120: e326 023d 6e90 b1bc 3044 a03c 2ae8 ddbc
00000130: 80cf d039 2048 b03c 6544 f0bc d07d 1b3c
00000140: 781a 663c 8aed 0abc 8072 6abb fcbe 203c
00000150: c00e faba 1ed6 f83c f8ed debc d44c a1bb
00000160: 1806 7abc d0b8 88bb 164a 03bd 26de 67bc
00000170: 9ac3 a23c b0e8 333c 3c54 b6bc 0675 ef3c
00000180: 3385 f4bc a36f eebc 3c92 23bc fa22 aebc
00000190: bff3 edb9 0b5b d83c 5c30 a13c c502 52bb
000001a0: c619 df3c a870 b13c 57ad 88bc fc62 c43c
000001b0: a97b 0f3d 9ce2 0f3c 4ae9 afbc b82f c23b
000001c0: ea7c fa3c a6cf 67bc 0c79 febc 9c4f 90bc
000001d0: 7954 073d 400d bfbb 884d bbbc 8af1 26bc
000001e0: 7b6c 013d f9b9 033d 1e74 c5bc 1399 693c
000001f0: 3fe1 b93c 1e96 dcbc f9c6 46bc f6bc 49bc
00000200: 5bb7 edbc 2a2f c1bc 8413 0c3d fbcf 5f3c
00000210: 9dc3 013d b095 bbbc a06c 9d3c e497 bbbb
00000220: 2e57 dc3c a8de 733c 30ad bb3b 2051 ae3a
00000230: 20e1 a9ba 825a c33c c0cd fb3a dce9 78bc
00000240: e35c 0cbd 3f32 003d 4896 373c 4b7f 043d
00000250: 2775 0a3d 7ad0 e3bc b7b4 993c ca07 5ebd
00000260: 32d4 84bd 2ef4 2abd e0de 0bbc e048 2ebd
00000270: 483f 3cbd 5110 443b fcf0 7cbd 8a79 a6bc
00000280: debc 23bd fc5d b6bc a020 37bb 1e37 99bc
00000290: c888 1d3c aa2f 22bc 8669 3cbc f66f b63c
000002a0: df32 0c3d beda f43c fa86 f1bc 20a3 8aba
000002b0: d87f 383c e639 b13c fa1c e03c 3c97 54bc
000002c0: 382a 3b3c f0e6 dbbc 341f 06bd ba3c 3bbd
000002d0: 3c28 b7bc 22bf 3bbd 8ecb 82bd 6296 6abd
000002e0: 0397 a4bd 895f 8fbc 45a8 2abd f581 47bd
000002f0: cb2a a1bc bc2a acbc 0080 1a36 1c11 763c
00000300: 08a8 143c 0e31 c2bc b0f0 813b beee adbc
00000310: 1654 ab3c a4e0 c9bb ba4f bc3c 755c 0d3d
00000320: ec31 923c 2202 f83c 9c6c 613c 3e3e 88bc
00000330: 98af c6bc b107 d5bb 3756 90bd 8ebc 3bbd
00000340: bf18 34bd eddf 75bd 4ed8 96bc 36a7 a5bd
00000350: 9add 9ebc 1132 2ebd bf76 b83b 0da9 5dbd
00000360: 443b 54bc 8f36 013d 41e1 0a3c 1c39 d2bc
00000370: aca6 d93c 22c2 a93c 5a0e e4bc 7e89 fabc
00000380: 4e6c debc 963c 973c e048 ab3c 2ce8 92bc
00000390: d059 02bd 2a96 02bc 00e5 903a c82e b7bc
000003a0: a5be c6bb cde5 4cbd d3f0 83bd a85a 0abd
000003b0: f376 1abd de71 01bd 201d e0bc 4c8c a3bd
000003c0: 4f20 43bd 8506 5b3c f0dd 1abd 0a1c 6abd
000003d0: 81e5 e1bc 28b6 36bc 23f1 293c 60e3 203c
000003e0: 2c2d 96bc 0216 8e3c 38c2 3cbc f045 5d3c
000003f0: 4ead 3ebc 72f1 ea3c a885 953c 3cd1 e9bc

l1.bias f4 [10]
0.008616584 -0.031554103 -0.033957005 0.029860288 -0.01390484 0.019768935 -0.024928916 -0.009361289
-0.0034019542 0.023140129
00000000: 932c 0d3c e03e 01bd 8016 0bbd 909d f43c
00000010: 20d1 63bc 76f2 a13c ba37 ccbc 1860 19bc
00000020: 52f3 5ebb 5e90 bd3c

momentum_buffer f4 [10, 784]
0.0 0.0 0.0 0.0 0.0 0.0 0.0 0.0
0.0 0.0 0.0 0.0 0.0 0.0 0.0 0.0
0.0 0.0 0.0 0.0 0.0 0.0 0.0 0.0
0.0 0.0 0.0 0.0 0.0 0.0 0.0 0.0
0.0 0.0 0.0 0.0 0.0 0.0 0.0 0.0
0.0 0.0 0.0 0.0 0.0 0.0 0.0 0.0
0.0 0.0 0.0 0.0 0.0 0.0 0.0 0.0
0.0 0.0 0.0 0.0 0.0 0.0 0.0 0.0
0.0 0.0 0.0 0.0 0.0 0.0 0.0 0.0
0.0 0.0 0.0 0.0 0.0 0.0 0.0 0.0
0.0 0.0 0.0 0.0 0.0 0.0 0.0 0.0
0.0 0.0 0.0 0.0 0.0 0.0 0.0 6e-45
6e-45 0.0 0.0 0.0 6e-45 6e-45 6e-45 6e-45
0.0 0.0 0.0 0.0 0.0 0.0 0.0 0.0
0.0 0.0 0.0 0.0 0.0 6e-45 6e-45 6e-45
6e-45 6e-45 6e-45 6e-45 6e-45 6e-45 6e-45 6e-45
6e-45 6e-45 6e-45 6e-45 0.0 0.0 6e-45 6e-45
6e-45 0.0 0.0 0.0 0.0 0.0 0.0 0.0
6e-45 6e-45 6e-45 6e-45 6e-45 6e-45 6e-45 6e-45
6e-45 6e-45 6e-45 6e-45 6e-45 6e-45 6e-45 6e-45
6e-45 0.0 6e-45 6e-45 6e-45 0.0 0.0 0.0
0.0 0.0 0.0 0.0 6e-45 6e-45 6e-45 6e-45
6e-45 6e-45 6e-45 6e-45 6e-45 6e-45 6e-45 6e-45
6e-45 6e-45 6e-45 6e-45 6e-45 6e-45 6e-45 6e-45
6e-45 6e-45 0.0 0.0 0.0 0.0 0.0 0.0
6e-45 6e-45 6e-45 6e-45 6e-45 6e-45 6e-45 6e-45
6e-45 6e-45 6e-45 6e-45 6e-45 6e-45 6e-45 6e-45
6e-45 6e-45 6e-45 6e-45 6e-45 6e-45 0.0 0.0
0.0 0.0 0.0 0.0 0.0 6e-45 6e-45 6e-45
6e-45 6e-45 6e-45 6e-45 6e-45 6e-45 6e-45 6e-45
6e-45 6e-45 6e-45 6e-45 6e-45 6e-45 6e-45 6e-45
6e-45 6e-45 0.0 0.0 0.0 0.0 0.0 0.0
00000000: 0000 0000 0000 0000 0000 0000 0000 0000
00000010: 0000 0000 0000 0000 0000 0000 0000 0000
00000020: 0000 0000 0000 0000 0000 0000 0000 0000
00000030: 0000 0000 0000 0000 0000 0000 0000 0000
00000040: 0000 0000 0000 0000 0000 0000 0000 0000
00000050: 0000 0000 0000 0000 0000 0000 0000 0000
00000060: 0000 0000 0000 0000 0000 0000 0000 0000
00000070: 0000 0000 0000 0000 0000 0000 0000 0000
00000080: 0000 0000 0000 0000 0000 0000 0000 0000
00000090: 0000 0000 0000 0000 0000 0000 0000 0000
000000a0: 0000 0000 0000 0000 0000 0000 0000 0000
000000b0: 0000 0000 0000 0000 0000 0000 0000 0000
000000c0: 0000 0000 0000 0000 0000 0000 0000 0000
000000d0: 0000 0000 0000 0000 0000 0000 0000 0000
000000e0: 0000 0000 0000 0000 0000 0000 0000 0000
000000f0: 0000 0000 0000 0000 0000 0000 0000 0000
00000100: 0000 0000 0000 0000 0000 0000 0000 0000
00000110: 0000 0000 0000 0000 0000 0000 0000 0000
00000120: 0000 0000 0000 0000 0000 0000 0000 0000
00000130: 0000 0000 0000 0000 0000 0000 0000 0000
00000140: 0000 0000 0000 0000 0000 0000 0000 0000
00000150: 0000 0000 0000 0000 0000 0000 0000 0000
00000160: 0000 0000 0000 0000 0000 0000 0000 0000
00000170: 0000 0000 0000 0000 0000 0000 0400 0000
00000180: 0400 0000 0000 0000 0000 0000 0000 0000
00000190: 0400 0000 0400 0000 0400 0000 0400 0000
000001a0: 0000 0000 0000 0000 0000 0000 0000 0000
000001b0: 0000 0000 0000 0000 0000 0000 0000 0000
000001c0: 0000 0000 0000 0000 0000 0000 0000 0000
000001d0: 0000 0000 0400 0000 0400 0000 0400 0000
000001e0: 0400 0000 0400 0000 0400 0000 0400 0000
000001f0: 0400 0000 0400 0000 0400 0000 0400 0000
00000200: 0400 0000 0400 0000 0400 0000 0400 0000
00000210: 0000 0000 0000 0000 0400 0000 0400 0000
00000220: 0400 0000 0000 0000 0000 0000 0000 0000
00000230: 0000 0000 0000 0000 0000 0000 0000 0000
00000240: 0400 0000 0400 0000 0400 0000 0400 0000
00000250: 0400 0000 0400 0000 0400 0000 0400 0000
00000260: 0400 0000 0400 0000 0400 0000 0400 0000
00000270: 0400 0000 0400 0000 0400 0000 0400 0000
00000280: 0400 0000 0000 0000 0400 0000 0400 0000
00000290: 0400 0000 0000 0000 0000 0000 0000 0000
000002a0: 0000 0000 0000 0000 0000 0000 0000 0000
000002b0: 0400 0000 0400 0000 0400 0000 0400 0000
000002c0: 0400 0000 0400 0000 0400 0000 0400 0000
000002d0: 0400 0000 0400 0000 0400 0000 0400 0000
000002e0: 0400 0000 0400 0000 0400 0000 0400 0000
000002f0: 0400 0000 0400 0000 0400 0000 0400 0000
00000300: 0400 0000 0400 0000 0000 0000 0000 0000
00000310: 0000 0000 0000 0000 0000 0000 0000 0000
00000320: 0400 0000 0400 0000 0400 0000 0400 0000
00000330: 0400 0000 0400 0000 0400 0000 0400 0000
00000340: 0400 0000 0400 0000 0400 0000 0400 0000
00000350: 0400 0000 0400 0000 0400 0000 0400 0000
00000360: 0400 0000 0400 0000 0400 0000 0400 0000
00000370: 0400 0000 0400 0000 0000 0000 0000 0000
00000380: 0000 0000 0000 0000 0000 0000 0000 0000
00000390: 0000 0000 0400 0000 0400 0000 0400 0000
000003a0: 0400 0000 0400 0000 0400 0000 0400 0000
000003b0: 0400 0000 0400 0000 0400 0000 0400 0000
000003c0: 0400 0000 0400 0000 0400 0000 0400 0000
000003d0: 0400 0000 0400 0000 0400 0000 0400 0000
000003e0: 0400 0000 0400 0000 0000 0000 0000 0000
000003f0: 0000 0000 0000 0000 0000 0000 0000 0000

momentum_buffer f4 [10]
6e-45 6e-45 6e-45 6e-45 6e-45 6e-45 6e-45 -1.9988038e-08
6e-45 6e-45
00000000: 0400 0000 0400 0000 0400 0000 0400 0000
00000010: 0400 0000 0400 0000 0400 0000 29b2 abb2
00000020: 0400 0000 0400 0000
