Practice3/logs/lightning_logs/version_1/checkpoints/epoch=0-step=1719.ckpt (torch, 66651 bytes, 4 tensors)

l1.weight f4 [10, 784]
0	0x3cf23fc0	0.029571414
1	0xbae5ba6e	-0.0017526874
2	0x3d022857	0.031776752
3	0xbb9d9cd5	-0.0048099556
4	0xbcd43550	-0.025904328
5	0xbcfa8110	-0.03057912
6	0xbcbbe540	-0.022936463
7	0xbd10aeee	-0.035323076
8	0xbc8e66fb	-0.01738309
9	0x3c47c796	0.012193581
10	0xbb8bd127	-0.0042668763
11	0xbc949aaf	-0.018140165
12	0x3cf54310	0.029939204
13	0x3d0a4be9	0.0337638
14	0xbc13aab5	-0.009012868
15	0x3cc927e4	0.024555154
16	0xbc67f864	-0.014158342
17	0x3c16d24e	0.009205414
18	0xbbacadd2	-0.0052697444
19	0x3cd8d4be	0.02646863
20	0x3cb56cb2	0.022146557
21	0x3c97119e	0.018441018
22	0xbc490a58	-0.012270533
23	0xbd024111	-0.031800333
24	0xbbddd103	-0.006769301
25	0xbce7b1e6	-0.02828307
26	0x3d103a8b	0.03521208
27	0xbcb4801b	-0.022033742
28	0xbcd78064	-0.026306339
29	0xbcd5d634	-0.026103117
30	0x3cd4e3be	0.025987502
31	0x3b18bf65	0.002330744
32	0xbcd27878	-0.02569221
33	0x3c891efa	0.016738404
34	0x3bb624c9	0.0055585844
35	0xbc70ceb2	-0.0146977175
36	0x3d03c969	0.0321745
37	0x3cf00321	0.029298367
38	0x3c8fcf27	0.017554833
39	0x3d118a86	0.035532497
40	0x3d008bf9	0.03138349
41	0xbce2d9ed	-0.027691806
42	0xbca5b0e3	-0.020225948
43	0x3bedb07f	0.007253706
44	0xbcc22696	-0.02370004
45	0xbcb7524e	-0.022378113
46	0x3be2ee18	0.0069253556
47	0x3d00b32b	0.031420868
48	0x3c916b3a	0.017751325
49	0x3c753a52	0.014967518
50	0x3ac9f030	0.0015406664
51	0xbc17fe91	-0.009277002
52	0x3ca3de60	0.020003498
53	0xbc78402e	-0.01515202
54	0xbcc5fb80	-0.024167776
55	0xbce1b6c4	-0.02755297
56	0x3cf5205e	0.02992266
57	0xbd11cc9f	-0.035595533
58	0xbcdd5858	-0.027019665
59	0xb93475ea	-0.00017210064
60	0xbbbbceac	-0.0057314243
61	0x3ca7757b	0.020441761
62	0xbccb16e8	-0.024791196
63	0xbc8677ff	-0.01641464
64	0xbc41f916	-0.011839172
65	0xbd03fd96	-0.03222426
66	0xbb66fee3	-0.003524714
67	0xbac23172	-0.0014815761
68	0xbcbcac07	-0.023031248
69	0xbbd6c740	-0.006554514
70	0xbcbe32e6	-0.02321763
71	0xbc5982cc	-0.013275813
72	0x3cb61886	0.02222849
73	0x3a93cf3b	0.001127697
74	0x3c70e632	0.01470332
75	0xbba4db16	-0.005031
76	0x3bda32fd	0.0066589103
77	0xbd05b22f	-0.032640632
78	0x3c43ac33	0.011942911
79	0xbb9335b2	-0.004492485
80	0x3c913b59	0.017728494
81	0xbc8f0ed8	-0.017463133
82	0x3c50130e	0.0126998555
83	0x3ce2e45e	0.027696785
84	0x3c50866e	0.012727363
85	0x3cb356da	0.021892
86	0xbd06d90f	-0.032921847
87	0xbd0c0a28	-0.034189373
88	0xbca41adb	-0.020032337
89	0x3cde2bad	0.027120436
90	0xbb9ed13e	-0.004846721
91	0x38f72232	0.00011784247
92	0x3cc4a084	0.024002321
93	0x3c96c9ef	0.018406836
94	0x3c316ba2	0.010828884
95	0xbced62d3	-0.028977787
96	0xbcb81c49	-0.022474425
97	0x3ce717e1	0.028209629
98	0x3b4900dc	0.0030670678
99	0x3c885dcb	0.016646286
100	0xbc765155	-0.0150340395
101	0xbd3cdda7	-0.04610982
102	0xbceb3888	-0.02871348
103	0xbc8c612f	-0.017136184
104	0xbd2560bf	-0.040375467
105	0xbc928999	-0.017887877
106	0x3af528d4	0.0018704184
107	0xbd0fbcae	-0.03509205
108	0xbcc7092a	-0.024296362
109	0x3cb9ef38	0.022697076
110	0x3c37a35a	0.01120838
111	0x3cb5078a	0.022098321
112	0xbba4a06c	-0.0050240066
113	0x3ce5cb22	0.028050963
114	0x3ca34f82	0.019935373
115	0xbc90a369	-0.017656045
116	0xbccc9085	-0.024971256
117	0xbc648c98	-0.013949536
118	0x3b530dea	0.0032204338
119	0x3bb17157	0.0054151225
120	0xbc80395f	-0.015652357
121	0x3c74d2a4	0.014942799
122	0x3ce4128a	0.027840871
123	0xbc0dabed	-0.008646947
124	0xbc9f6d02	-0.019461159
125	0x3cbb091e	0.022831496
126	0xbc533bde	-0.012892691
127	0x3bcf2abc	0.006322233
128	0xbcb0c36d	-0.021577561
129	0x3d088923	0.03333391
130	0x3caaac66	0.02083416
131	0x3c7eb9af	0.0155472
132	0xbccbaadd	-0.024861747
133	0xbc6b48ca	-0.014360616
134	0xbb4eee14	-0.003157501
135	0xbc5c0860	-0.013429731
136	0x3c3871e7	0.011257625
137	0x3b975dd8	0.0046193413
138	0x3c41a20b	0.011818419
139	0x3a039f22	0.0005020966
140	0x3cbfeb8a	0.023427743
141	0x3c96c830	0.018406004
142	0x3d04a591	0.03238446
143	0xbb851edc	-0.0040625166
144	0xbcaea6e6	-0.021319818
145	0x3c423f93	0.011855978
146	0xbd1ebdab	-0.0387551
147	0xbd2c0261	-0.041994456
148	0xbcba2a8b	-0.022725364
149	0xbc16e60f	-0.009210124
150	0x3b0ec5b1	0.0021785314
151	0x3c128f0b	0.008945237
152	0x3bb7a29c	0.0056041013
153	0x3c8fb522	0.017542426
154	0x3da288c9	0.07936246
155	0x3db6974a	0.08915575
156	0x3d100c84	0.035168186
157	0x3ced4ea3	0.028968161
158	0x3c090ae8	0.008364417
159	0x3d26ac50	0.040691674
160	0x3c92a357	0.017900152
161	0x3cdf1f91	0.027236732
162	0xbc5009aa	-0.012697617
163	0xbb546137	-0.0032406577
164	0xbcae8cda	-0.021307398
165	0xbcf135a8	-0.02944453
166	0x3cd2861f	0.02569872
167	0x397a2847	0.00023856862
168	0xbc5caba0	-0.013468653
169	0xbcdcad68	-0.026938155
170	0x3d02f5d3	0.031972717
171	0x3b5f904b	0.0034113105
172	0xbba8cc94	-0.0051513407
173	0xbc09cfbe	-0.008411346
174	0x3cbbf26e	0.022942748
175	0xbc92bbcc	-0.017911814
176	0xbd42993a	-0.04750941
177	0xbcd78d11	-0.026312383
178	0xbbd7987f	-0.0065794582
179	0x3c92ec1b	0.01793485
180	0x3d4a3518	0.04936704
181	0x3d05089d	0.032478917
182	0x3d64bbf5	0.055843312
183	0x3d7103b5	0.058841426
184	0x3d8b656c	0.06806454
185	0x3d828bd4	0.06374326
186	0x3d97c80e	0.07411204
187	0x3d6c4e46	0.057691835
188	0x3b5c6e44	0.003363506
189	0x3d21ceda	0.03950391
190	0xbc34e2c5	-0.011040394
191	0xbcd3620f	-0.025803594
192	0x3b975c56	0.0046191616
193	0x3c020620	0.007936031
194	0xbce60d12	-0.028082404
195	0x3c890f71	0.016730996
196	0x3d075c89	0.033047233
197	0x3d099ddd	0.033597816
198	0x3cdfe775	0.027332047
199	0x3c8aa0c6	0.016922366
200	0x3cdeac03	0.027181631
201	0xbd1ced76	-0.038312398
202	0xbcb19543	-0.021677619
203	0xbaf860b7	-0.0018949722
204	0xbcfd1acf	-0.030896572
205	0x3acbe970	0.0015557241
206	0x3b8a6cf0	0.004224412
207	0x3d1353c6	0.035968564
208	0x3d1a1946	0.03762176
209	0x3ce30858	0.02771394
210	0x3d32dff1	0.0436706
211	0x3cc1b070	0.023643702
212	0x3d0c6e42	0.034284838
213	0x3daa07fe	0.08302306
214	0x3d845965	0.06462363
215	0x3ce03bee	0.027372327
216	0x3d0ffdf1	0.035154287
217	0x3c340000	0.010986328
218	0xbbb299c9	-0.0054504615
219	0xbb8fedf1	-0.0043923785
220	0xbce6eec9	-0.028190034
221	0xbc77403c	-0.015090998
222	0xbc06d9aa	-0.008230606
223	0x3ce639f5	0.028103808
224	0xbbda22e7	-0.0066569927
225	0x3ce210bb	0.027595868
226	0xbcd30c75	-0.025762776
227	0x3cc1bc14	0.023649253
228	0xbcba12d9	-0.022714065
229	0xbc9e06af	-0.019290296
230	0x3be91cb3	0.007114017
231	0xbd8215e3	-0.06351831
232	0xbd5bbead	-0.05364864
233	0xbd1a11d7	-0.03761467
234	0xb9cad526	-0.0003868725
235	0x3af2090b	0.001846583
236	0xbd13d36c	-0.0360903
237	0x3ce611ca	0.028084654
238	0x3c370658	0.011170946
239	0x3c067754	0.008207161
240	0x3cf49936	0.029858213
241	0x3d853c07	0.0650559
242	0x3d4a67ad	0.04941528
243	0x3ce8e02c	0.028427206
244	0x3d43f0ea	0.047837175
245	0x3d375069	0.04475442
246	0x3d2e03af	0.04248398
247	0xbaf55906	-0.0018718548
248	0x3ca7423a	0.020417321
249	0xbd419fb2	-0.047271438
250	0xbcc045ac	-0.023470722
251	0x3c089f2c	0.008338731
252	0x3c9fb7a8	0.019496754
253	0xbaf1cc08	-0.0018447647
254	0x3ca6cf91	0.020362647
255	0xbca101b5	-0.019654134

l1.bias f4 [10]
0	0xbcf67cd3	-0.030088818
1	0xbca751ba	-0.020424712
2	0x3c471bfa	0.012152666
3	0x3d21b8e8	0.03948298
4	0x3bbd2595	0.0057723024
5	0xb98ffbf7	-0.00027462814
6	0x3c75b0b2	0.014995741
7	0x3c03d3a5	0.008046065
8	0xbace1475	-0.0015722649
9	0xbcc13005	-0.023582468

momentum_buffer f4 [10, 784]
0	0x3d21cade	0.03950011
1	0x3d21cade	0.03950011
2	0x3d21cade	0.03950011
3	0x3d21cade	0.03950011
4	0x3d21cade	0.03950011
5	0x3d21cade	0.03950011
6	0x3d21cade	0.03950011
7	0x3d21cade	0.03950011
8	0x3d21cade	0.03950011
9	0x3d21cade	0.03950011
10	0x3d21cade	0.03950011
11	0x3d21cade	0.03950011
12	0x3d21cade	0.03950011
13	0x3d21cade	0.03950011
14	0x3d21cade	0.03950011
15	0x3d21cade	0.03950011
16	0x3d21cade	0.03950011
17	0x3d21cade	0.03950011
18	0x3d21cade	0.03950011
19	0x3d21cade	0.03950011
20	0x3d21cade	0.03950011
21	0x3d21cade	0.03950011
22	0x3d21cade	0.03950011
23	0x3d21cade	0.03950011
24	0x3d21cade	0.03950011
25	0x3d21cade	0.03950011
26	0x3d21cade	0.03950011
27	0x3d21cade	0.03950011
28	0x3d21cade	0.03950011
29	0x3d21cade	0.03950011
30	0x3d21cade	0.03950011
31	0x3d21cade	0.03950011
32	0x3d21cade	0.03950011
33	0x3d21cade	0.03950011
34	0x3d21cade	0.03950011
35	0x3d21cade	0.03950011
36	0x3d21cade	0.03950011
37	0x3d21cd8e	0.039502673
38	0x3d21cdc8	0.03950289
39	0x3d21cbee	0.039501123
40	0x3d21cade	0.03950011
41	0x3d21cade	0.03950011
42	0x3d21cade	0.03950011
43	0x3d21cade	0.03950011
44	0x3d21d5f4	0.039510682
45	0x3d21db66	0.039515875
46	0x3d21cc7e	0.03950166
47	0x3d21cade	0.03950011
48	0x3d21cade	0.03950011
49	0x3d21cade	0.03950011
50	0x3d21cade	0.03950011
51	0x3d21cade	0.03950011
52	0x3d21cade	0.03950011
53	0x3d21cade	0.03950011
54	0x3d21cade	0.03950011
55	0x3d21cade	0.03950011
56	0x3d21cade	0.03950011
57	0x3d21cade	0.03950011
58	0x3d21cade	0.03950011
59	0x3d21cae2	0.039500125
60	0x3d21cade	0.03950011
61	0x3d21cade	0.03950011
62	0x3d21cade	0.03950011
63	0x3d21cade	0.03950011
64	0x3d21d0cc	0.039505765
65	0x3d21dab4	0.039515212
66	0x3d21d7a2	0.039512284
67	0x3d21cfaa	0.039504685
68	0x3d229186	0.039689563
69	0x3d266d16	0.040631376
70	0x3d2767da	0.040870525
71	0x3d27a76c	0.04093115
72	0x3d23b978	0.0399718
73	0x3d21e99a	0.03952942
74	0x3d217a6a	0.039423384
75	0x3d212976	0.03934618
76	0x3d21d9f8	0.03951451
77	0x3d220132	0.03955192
78	0x3d2233b8	0.039600104
79	0x3d221bd6	0.039577328
80	0x3d21cae0	0.039500117
81	0x3d21cade	0.03950011
82	0x3d21cade	0.03950011
83	0x3d21cade	0.03950011
84	0x3d21cade	0.03950011
85	0x3d21cade	0.03950011
86	0x3d21cade	0.03950011
87	0x3d21cafc	0.03950022
88	0x3d21caf8	0.039500207
89	0x3d21cade	0.03950011
90	0x3d22b862	0.039726622
91	0x3d2282ac	0.0396754
92	0x3d21e942	0.039529093
93	0x3d2237c2	0.039603956
94	0x3d2410cc	0.04005508
95	0x3d209f74	0.039214566
96	0x3d2045d8	0.03912911
97	0x3d3ca714	0.046057776
98	0x3d2e3def	0.042539533
99	0x3d0c4176	0.034242116
100	0x3ce4596c	0.02787467
101	0x3cd1a3c2	0.025590781
102	0x3cd7891f	0.026310502
103	0x3d118dde	0.035535686
104	0x3d3e6776	0.046485387
105	0x3d488376	0.048953496
106	0x3d2a314e	0.041550927
107	0x3d220632	0.03955669
108	0x3d223502	0.039601333
109	0x3d21cade	0.03950011
110	0x3d21cade	0.03950011
111	0x3d21cade	0.03950011
112	0x3d21cade	0.03950011
113	0x3d21cade	0.03950011
114	0x3d21cade	0.03950011
115	0x3d21cade	0.03950011
116	0x3d2385c4	0.03992249
117	0x3d25f760	0.04051912
118	0x3d261bf2	0.040553994
119	0x3d286939	0.041115973
120	0x3d2c176c	0.042014524
121	0x3d2f739c	0.042834863
122	0x3d4adbf0	0.049526155
123	0x3d3c67d3	0.045997452
124	0x3d0d5f63	0.034514796
125	0x3d11b6e1	0.035574798
126	0xbb46e710	-0.0030350126
127	0xbdb7f1ec	-0.0898169
128	0xbdb4f8ac	-0.08836493
129	0xbd95b873	-0.073105715
130	0x3bc4ef90	0.0060100034
131	0x3d36d0e7	0.04463282
132	0x3d73d9f8	0.059534043
133	0x3d8b7857	0.068100624
134	0x3d5ff306	0.054675125
135	0x3d24f858	0.0402759
136	0x3d25f054	0.040512398
137	0x3d22e024	0.03976454
138	0x3d21cade	0.03950011
139	0x3d21cade	0.03950011
140	0x3d21cade	0.03950011
141	0x3d21cade	0.03950011
142	0x3d21cade	0.03950011
143	0x3d21cafa	0.039500214
144	0x3d23254e	0.0398305
145	0x3d271bec	0.040798113
146	0x3d2c919e	0.04213106
147	0x3d376582	0.04477454
148	0x3d3ed9be	0.046594374
149	0x3d1c1096	0.038101755
150	0x3d24be3f	0.040220495
151	0x3d3e162a	0.046407856
152	0x393b2380	0.00017846934
153	0xbdc4e62b	-0.096142136
154	0xbe1aeb92	-0.15128925
155	0xbe259468	-0.16169894
156	0xbde97ea8	-0.11401111
157	0xbdca4b60	-0.09877658
158	0xbdbc9584	-0.09208205
159	0xbd0c61c6	-0.03427293
160	0x3c97b4aa	0.018518765
161	0x3d19d40a	0.03755573
162	0x3d276aa1	0.040873174
163	0x3d10b027	0.035324242
164	0x3d2906c0	0.041266203
165	0x3d23ff46	0.04003837
166	0x3d21cae0	0.039500117
167	0x3d21cade	0.03950011
168	0x3d21cade	0.03950011
169	0x3d21cade	0.03950011
170	0x3d21cade	0.03950011
171	0x3d21d74c	0.039511964
172	0x3d239598	0.039937586
173	0x3d282b70	0.04105705
174	0x3d319d0e	0.04336267
175	0x3d263cc6	0.0405853
176	0x3c84baa1	0.016202273
177	0x3c8750b5	0.016517976
178	0x3d04c2f6	0.03241249
179	0x3c90126c	0.01758691
180	0xbdbc54f0	-0.09195888
181	0xbdf45169	-0.1192959
182	0xbe1c995e	-0.1529288
183	0xbe403543	-0.18770318
184	0xbe1cce69	-0.15313114
185	0xbdad62eb	-0.08466133
186	0xbd7cc624	-0.0617124
187	0xbd48a1ac	-0.048982307
188	0x3bd7fa28	0.0065911002
189	0x3cae8b5a	0.021306682
190	0x3c816e98	0.015799806
191	0x3c4d72f3	0.012539613
192	0x3d2b8e02	0.041883476
193	0x3d24f440	0.040271997
194	0x3d21c6ca	0.03949622
195	0x3d2121fc	0.03933905
196	0x3d21cade	0.03950011
197	0x3d21cade	0.03950011
198	0x3d21cade	0.03950011
199	0x3d22886a	0.039680876
200	0x3d26a1a2	0.04068149
201	0x3d261828	0.04055038
202	0x3d3099d5	0.043115456
203	0x3c5e8b88	0.0135830715
204	0x3bfea575	0.007771189
205	0xbb6f6d40	-0.0036533624
206	0xbc4a1552	-0.012334185
207	0xbdaecdcc	-0.085353464
208	0xbe190512	-0.1494334
209	0xbda7fc59	-0.08202428
210	0xbe28fc26	-0.16502437
211	0xbe5b1454	-0.21394473
212	0xbe4795f7	-0.19490801
213	0xbdf4ffad	-0.11962829
214	0xbd831215	-0.06399933
215	0xbd5335aa	-0.05156485
216	0xbd29e7ed	-0.041480947
217	0xbc943f5a	-0.018096615
218	0xba1a6bf0	-0.0005890718
219	0x3c7ccedc	0.0154301785
220	0x3d3d5e9e	0.046232812
221	0x3d2caa1a	0.04215441
222	0x3d221a5e	0.039575927
223	0x3d208e00	0.03919792
224	0x3d21cade	0.03950011
225	0x3d21cade	0.03950011
226	0x3d21c9fc	0.039499268
227	0x3d24ac00	0.040203094
228	0x3d272c64	0.04081382
229	0x3d28e4d8	0.041233867
230	0x3cd6fd88	0.02624394
231	0xbc7f0f63	-0.015567633
232	0xbca41298	-0.020028397
233	0xbd893149	-0.066988535
234	0xbe1106eb	-0.14162795
235	0xbe33c555	-0.17555745
236	0xbe1932c0	-0.14960766
237	0xbe257c77	-0.16160761
238	0xbe3cd270	-0.1843965
239	0xbe3d2d86	-0.18474397
240	0xbe7662a0	-0.2406106
241	0xbe1cc3ee	-0.15309116
242	0xbdd121ca	-0.10211523
243	0xbd450c68	-0.048107535
244	0xbc9c6742	-0.019092206
245	0xbc0ac20d	-0.008469117
246	0xbc53cbf6	-0.012927046
247	0xbb546fe4	-0.0032415325
248	0x3d022e4a	0.031782426
249	0x3d3a00ec	0.045411035
250	0x3d222dda	0.03959451
251	0x3d21ea8e	0.03953033
252	0x3d21cade	0.03950011
253	0x3d21cade	0.03950011
254	0x3d21cade	0.03950011
255	0x3d2677c2	0.040641554

momentum_buffer f4 [10]
0	0xbdbeb27d	-0.09311388
1	0x3d313c2e	0.043270282
2	0xbdb72567	-0.08942681
3	0x3d012a3c	0.03153442
4	0x3cb2c162	0.021820728
5	0x3d8a54e8	0.06754476
6	0x3d02493a	0.031808116
7	0x3bc62f8c	0.0060481485
8	0xbdd07be1	-0.10179878
9	0x3cd57810	0.026058227
