Practice3/logs/lightning_logs/version_0/checkpoints/epoch=0-step=1719.ckpt (torch, 66651 bytes, 4 tensors)

l1.weight f4 [10, 784]
00000000: 63f0 81bb e3f8 8ebb 39a6 c2bb 7e50 593b
00000010: b1db 36bc edad 4abc 2ea8 083d 33ab 9cbc
00000020: ed6c 523c f77e e3bb 52d6 0e3d 3520 2e3c
00000030: 0efb a9bc 6e39 aa3c 989a b4ba dbdc 013d
00000040: 2581 603c 0f75 13bc 299f a83c 96b9 803b
00000050: f49b 073d 9560 0dbd 5987 483c 7969 4a3c
00000060: 9da7 763c 77bb fabc ff09 b33b 95df c0bc
00000070: 0761 b83b 3306 b43c 798d 4a3c db1b 32bc
00000080: 13a2 91bc 71a5 abbc f57b ae3c 2fed a5bc
00000090: aef7 0f3d 6a5c 0dbd 19a5 523c 5d80 a23c
000000a0: 6a92 02bd f4fc 4ebc a7a7 ad3b b4f0 073d
000000b0: 3190 ff3c c7c4 c8bc 2dd2 d0bc 1d11 d23c
000000c0: 12ff cebc 0a24 97bc 8290 23bc 7d69 f1bb
000000d0: 3619 9e3b fffe 09bd 4f7c f9bc 9b78 6fbc
000000e0: d20a 003c 3a86 b0bc 87a6 edbc 7ea4 0f3c
000000f0: e26f 04bd 2cba 2f3c 3466 e43b 0924 8dbc
00000100: dfab 493c 168d 853b 7717 7abc f9a8 8b3b
00000110: aae3 453c ddf6 73bc 1e42 cfbc fa5b cebc
00000120: 9cfe e9bb dac7 d03c 721f 97ba db6b 8b3c
00000130: 060b d9bc 2c24 06bd b782 3fba 1d13 01bd
00000140: a048 633c 22d5 163c db6c f83b da3b e8bb
00000150: 4dee 3d3c 7900 a73c 65ed e73c cea7 463c
00000160: fe0f ffbc 4be9 ffbc 589f c4bc 87e1 f0bc
00000170: 5a6f 8abb 44f8 ddba 1076 87bc c1a7 263c
00000180: 0705 26bd 8714 c03c 5dab 09bd 3167 70bc
00000190: 911a 22bd 4e9a 01bd 5738 ecb9 a3bb 42bd
000001a0: c918 8c3b 90a2 23bd 6691 b63c 8bd9 e03c
000001b0: 80e2 97bc 38b3 f1bc 638e 93bc 43ae b13c
000001c0: f5d6 04bb fb20 41bc 2cda f7bc 5187 273c
000001d0: c980 04bd 7021 f4bb 1428 9bbc 5135 5bbc
000001e0: 20cf 00bd 579c b03c 4940 1dbd 0769 443c
000001f0: afa9 453b 1425 043d 22f7 19bc 1034 e43b
00000200: 7aa3 debc 5150 523b e90c 64bc 34a9 70bb
00000210: c114 04bc afbb dabc 3552 3abd f06c b5bc
00000220: f952 de3c e2c8 c5bc a7b9 e5bc c17b a03c
00000230: 53c6 c8bc 3705 a03b 01de efbc 11b7 04bd
00000240: 6247 a2bc 5548 36bc efe8 4dbc b6d4 983c
00000250: 4d8c 35bd fd3e 023c 7422 01bc 2e52 a03c
00000260: 8c8a ba3c c137 c13c 54e7 e83c 03a2 1e3d
00000270: cd9e 673d 1777 8f3d d5b7 d8bb 2925 043c
00000280: 0eec 93ba d78b a8bc ae91 aabb 499f 19bd
00000290: d264 25bd 4ff2 0fbd b4f7 623b 0356 47bc
000002a0: 9701 013c 0be3 b7bc 830e c33c ee22 943b
000002b0: 331e 2fbc 84b6 b6bc b35b 4dbc 40ac d6bc
000002c0: 3be8 4cbd e0aa adbc 6a78 923c 56ed 62bb
000002d0: 9fdb 543d 4218 da3c 596a 863d 1e41 963d
000002e0: d307 6e3d 2e12 163d 9037 723d eee5 013d
000002f0: 384e 133c 9bc1 013d a969 a93b cd7e 28bd
00000300: db53 0ebd 0e9e 2b3c 15d2 f63c 3f55 d1bc
00000310: 70c9 043d 562f 213c 8cb0 0ebd e823 ffbc
00000320: 9403 fbbc 07d2 60bc dd04 acbc 231c 8abc
00000330: 1fef 4bbd f44c 2ebc 790c 413b 01cb 033d
00000340: 8f82 fb3c 21a8 d5bb ad90 f43c c9a5 423d
00000350: cacf fd3c d64e d03d d0b3 863d 667d 293c
00000360: 36fe 153d d200 3f3c ce5e 273d 1374 b53c
00000370: c7a1 443c c4fc 07bd ca22 0cbb e94e 083d
00000380: ac3d aebc 1a11 dcbc d93b 03bd 45cb 883c
00000390: 5f40 afbc 52a6 09bd 233f b1bc a93e 56bc
000003a0: ef63 b2bc 0e12 0cbc 5cf2 38bc 631e 12bc
000003b0: 1a50 773c 2d0c 173c 1245 4a3d e67e d33c
000003c0: 0907 013d 98cc 713d e10a 843d 8cf9 773d
000003d0: ce36 3abb a4b0 493d 6b71 6e3c 82b7 31ba
000003e0: b34a 973c e7af 9ebc e07c efbb 260b f6bc
000003f0: 4da4 01bb 3a9b e53c c082 bf3c 3ac2 0abd
-0.003965424 -0.0043631657 -0.0059402254 0.003315955 -0.011160777 -0.012370569 0.033363514 -0.019124603
0.012843353 -0.0069426256 0.03487236 0.010627796 -0.020749595 0.020779338 -0.0013778983 0.031704765
0.013702665 -0.009000077 0.020583706 0.0039283736 0.033107713 -0.034515936 0.012239301 0.012354248
0.015054611 -0.030606968 0.005463838 -0.023544112 0.005626801 0.021975612 0.012362831 -0.010870899
-0.017777478 -0.020952912 0.021299342 -0.0202547 0.035148315 -0.03451196 0.012856745 0.019836599
-0.031877913 -0.012633551 0.0052995267 0.033188537 0.031196686 -0.024507893 -0.025490845 0.025642926
-0.025268111 -0.018449802 -0.009983184 -0.0073673115 0.0048247827 -0.03369045 -0.030454783 -0.014616157
0.00781508 -0.02154838 -0.02901007 0.008767245 -0.032333262 0.010725539 0.0069701914 -0.017229097
0.012309044 0.0040756566 -0.0152643835 0.0042620865 0.012078205 -0.0148904 -0.025300082 -0.025190342
-0.0071409475 0.025485922 -0.0011529757 0.017019203 -0.026494514 -0.03274934 -0.000730555 -0.03151237
0.013872296 0.009206088 0.007581336 -0.007087213 0.01159246 0.020385968 0.02831144 0.012124969
-0.031135555 -0.031239172 -0.024001762 -0.029404415 -0.0042247 -0.0016934951 -0.016535789 0.010171832
-0.04053214 0.023447288 -0.03361069 -0.01467304 -0.039576117 -0.031641297 -0.00045055404 -0.047542226
0.0042754156 -0.039949954 0.022286128 0.027447483 -0.01854062 -0.029504403 -0.018012231 0.02168954
-0.0020269726 -0.011787648 -0.0302554 0.010225133 -0.03234938 -0.007450275 -0.01894001 -0.013379411
-0.03144753 0.021558924 -0.038391385 0.011987931 0.0030160954 0.032261923 -0.0093973 0.006964214
-0.027177561 0.003209133 -0.013919094 -0.0036721947 -0.008061589 -0.026700823 -0.045488555 -0.022146672
0.027139174 -0.02414364 -0.028042627 0.01959026 -0.02450863 0.004883434 -0.029280664 -0.03240115
-0.019809429 -0.011125644 -0.012567743 0.018656116 -0.044323254 0.007949588 -0.007881749 0.019570436
0.022771142 0.023586156 0.028430618 0.038728725 0.05654793 0.070051365 -0.0066137114 0.0080655
-0.001128556 -0.020574493 -0.0052053547 -0.03750542 -0.040379353 -0.035143193 0.0034632506 -0.012166503
0.007873914 -0.02244713 0.02381063 0.0045207655 -0.010688352 -0.022303827 -0.01253407 -0.026205182
-0.05002616 -0.021199644 0.017879684 -0.0034626327 0.05196726 0.026622895 0.06563253 0.07336639
0.05811293 0.03663843 0.05913502 0.03171342 0.008990817 0.031678777 0.0051700664 -0.04113655
-0.03474794 0.010474695 0.030129472 -0.025553344 0.03241867 0.009837946 -0.034836337 -0.031145051
-0.030641355 -0.013721949 -0.020998413 -0.01685912 -0.04978859 -0.010638464 0.0029456897 0.03217602
0.030701904 -0.0065202867 0.029854143 0.047521386 0.03098287 0.10171287 0.06577265 0.010344839
0.036619388 0.01165791 0.040861897 0.022150075 0.012001461 -0.03320004 -0.002138304 0.03327838
-0.021269642 -0.026863623 -0.032039497 0.016698489 -0.021393 -0.03360588 -0.021636551 -0.013076463
-0.021776168 -0.008549226 -0.011288252 -0.008918378 0.015094781 0.0092192115 0.049382277 0.025817346
0.03150085 0.059033006 0.064473875 0.06054072 -0.0028414014 0.049240723 0.014553408 -0.0006779359
0.018468237 -0.019370986 -0.0073085874 -0.030034613 -0.0019781769 0.02802812 0.023377776 -0.033876635

l1.bias f4 [10]
00000000: e898 843c 3edd ed3c 9497 02bc ed68 ba3c
00000010: 02cc bd3c 2d6e 7a3d eb27 bf3b 5627 523c
00000020: 2bd6 9c3b 4aea 9d3c
0.016186193 0.02903616 -0.007970709 0.02275511 0.023168568 0.061140228 0.005833616 0.012826761
0.004786273 0.019276757

momentum_buffer f4 [10, 784]
00000000: 469a 97bc 469a 97bc 469a 97bc 469a 97bc
00000010: 469a 97bc 469a 97bc 469a 97bc 469a 97bc
00000020: 469a 97bc 469a 97bc 469a 97bc 469a 97bc
00000030: 469a 97bc 469a 97bc 469a 97bc 469a 97bc
00000040: 469a 97bc 469a 97bc 469a 97bc 469a 97bc
00000050: 469a 97bc 469a 97bc 469a 97bc 469a 97bc
00000060: 469a 97bc 469a 97bc 469a 97bc 469a 97bc
00000070: 469a 97bc 469a 97bc 469a 97bc 469a 97bc
00000080: 469a 97bc 469a 97bc 469a 97bc 469a 97bc
00000090: 309a 97bc 189a 97bc 469a 97bc 309a 97bc
000000a0: 049a 97bc e897 97bc 5090 97bc f497 97bc
000000b0: d699 97bc b088 97bc 9248 97bc 7e87 97bc
000000c0: 469a 97bc 469a 97bc 469a 97bc 469a 97bc
000000d0: 469a 97bc 469a 97bc 469a 97bc 469a 97bc
000000e0: 469a 97bc 469a 97bc 469a 97bc 469a 97bc
000000f0: 469a 97bc 469a 97bc 469a 97bc 389a 97bc
00000100: 2896 97bc bc46 97bc 6837 97bc 6cf0 96bc
00000110: e684 95bc be8d 95bc b09c 96bc 2257 96bc
00000120: 1eeb 8cbc b194 72bc 4114 79bc 9ebd 93bc
00000130: 0a28 97bc d62a 97bc 9e70 97bc f290 97bc
00000140: 469a 97bc 469a 97bc 469a 97bc 469a 97bc
00000150: 469a 97bc 469a 97bc 469a 97bc 469a 97bc
00000160: 469a 97bc 469a 97bc 369a 97bc b297 97bc
00000170: 0a35 97bc de95 94bc 7261 92bc 46ed 92bc
00000180: fb20 58bc ea61 343d 46a5 853d cbde 863d
00000190: 468c 153c 035b 65bc 2ea2 77bc a4fb bfbc
000001a0: d64c bebc e903 9ebc f2dd 80bc 9465 91bc
000001b0: 289d 97bc b09d 97bc 469a 97bc 469a 97bc
000001c0: 469a 97bc 469a 97bc 469a 97bc 469a 97bc
000001d0: 449a 97bc 369a 97bc bb97 97bc 50b1 97bc
000001e0: eee5 a5bc 3ae0 bcbc 9c37 dcbc 3599 2dbc
000001f0: 856b 3f3d 9667 823d 78b2 843d e985 923d
00000200: ac3f 3b3c a629 b3bc f78e cfbc 4b6c b5bc
00000210: def0 cebc d3d7 cabc bcbe 95bc 7eed 88bc
00000220: d619 93bc 6699 97bc da99 97bc 469a 97bc
00000230: 469a 97bc 469a 97bc 5875 97bc 469a 97bc
00000240: d299 97bc d290 97bc 3760 cebc 080d eebc
00000250: d80b 11bd a5d3 46bd e1f3 36bd 98ab 89ba
00000260: a3ac 883d 67e4 803d bdb6 ab3d aed8 9e3d
00000270: 00f3 1c3a 34cc fabc def7 35bd 5d9f 25bd
00000280: 1aa8 17bd 3caa 1dbd 818e 85bc b060 7fb9
00000290: 28e1 debb 0efa 8fbc 2a6e 97bc 469a 97bc
000002a0: 469a 97bc 469a 97bc 1a96 97bc 449a 97bc
000002b0: c4aa 97bc a10c 25bd 4700 46bd 7849 a7bc
000002c0: 0ef7 babc 5712 80bc af89 57bc 5c63 813d
000002d0: fc33 913d 0c82 9a3d 3cab a13d d87b 453d
000002e0: 816d a6bc b40e bdbc b17e 15bd 2540 38bd
000002f0: 44ab d3bc 36c1 d2bc 0bcd 88bc c657 603a
00000300: c171 c43b 9707 64bc 3b7e 79bc 469a 97bc
00000310: 469a 97bc 469a 97bc 469a 97bc b299 97bc
00000320: 92ae 97bc 5320 45bd 31cb 2cbd ac3a 0bbd
00000330: af14 b0bc 26b0 47bc 5bcf 543d 7191 9c3d
00000340: 90dd 5a3d 760d c03b 815a debb e0f5 12bd
00000350: 878e 32bd a8c5 1bbd e247 1fbd bfeb 1fbd
00000360: 555f cebc 0af6 09bd b24b ffbc 9e9c c3bb
00000370: 680d abbb 66e3 66bc a864 92bc b67e 97bc
00000380: 469a 97bc 469a 97bc fa83 97bc d083 97bc
00000390: d232 97bc 6023 12bd 8845 89bc 48b5 5f3b
000003a0: ca16 97bb c1e2 5d3d 620e bd3d f54b 8f3d
000003b0: ad65 033d a655 e9bb b899 84ba cb00 33bb
000003c0: 25e4 d9bc e29a 69bc 2451 12bc c256 87bb
000003d0: 9efe 9fbc a4c5 dabc 2e6f 2cbd 1242 02bd
000003e0: d6cf 5abc 959b 70bc 8085 96bc da93 97bc
000003f0: 469a 97bc 469a 97bc dc81 97bc a280 97bc
-0.01850618 -0.01850618 -0.01850618 -0.01850618 -0.01850618 -0.01850618 -0.01850618 -0.01850618
-0.01850618 -0.01850618 -0.01850618 -0.01850618 -0.01850618 -0.01850618 -0.01850618 -0.01850618
-0.01850618 -0.01850618 -0.01850618 -0.01850618 -0.01850618 -0.01850618 -0.01850618 -0.01850618
-0.01850618 -0.01850618 -0.01850618 -0.01850618 -0.01850618 -0.01850618 -0.01850618 -0.01850618
-0.01850618 -0.01850618 -0.01850618 -0.01850618 -0.01850614 -0.018506095 -0.01850618 -0.01850614
-0.018506058 -0.018505052 -0.01850143 -0.018505074 -0.018505972 -0.018497795 -0.018467221 -0.018497225
-0.01850618 -0.01850618 -0.01850618 -0.01850618 -0.01850618 -0.01850618 -0.01850618 -0.01850618
-0.01850618 -0.01850618 -0.01850618 -0.01850618 -0.01850618 -0.01850618 -0.01850618 -0.018506154
-0.018504217 -0.018466346 -0.018459037 -0.018425189 -0.018251847 -0.018256065 -0.018385261 -0.018352095
-0.017201956 -0.014805959 -0.015202583 -0.018034752 -0.01845171 -0.018453043 -0.018486317 -0.018501732
-0.01850618 -0.01850618 -0.01850618 -0.01850618 -0.01850618 -0.01850618 -0.01850618 -0.01850618
-0.01850618 -0.01850618 -0.01850615 -0.018504951 -0.018457908 -0.018137868 -0.017868731 -0.017935406
-0.013191457 0.04403869 0.06525664 0.06585463 0.009127682 -0.01399875 -0.01511435 -0.023435421
-0.023229998 -0.019288974 -0.015730832 -0.017748632 -0.018507555 -0.018507808 -0.01850618 -0.01850618
-0.01850618 -0.01850618 -0.01850618 -0.01850618 -0.018506177 -0.01850615 -0.018504968 -0.018517166
-0.02025124 -0.023056138 -0.026881985 -0.010595609 0.046733398 0.06367414 0.06479353 0.071544476
0.011428755 -0.021870445 -0.025336726 -0.022146365 -0.025261339 -0.024761116 -0.018279426 -0.016714808
-0.017956655 -0.018505763 -0.01850598 -0.01850618 -0.01850618 -0.01850618 -0.018488571 -0.01850618
-0.018505964 -0.018501673 -0.025192363 -0.029058948 -0.035411686 -0.048541684 -0.044666175 -0.001050341
0.06673553 0.06293564 0.08384464 0.07756172 0.00059871376 -0.03061495 -0.044425838 -0.040435184
-0.03702555 -0.038492426 -0.016303303 -0.00024354714 -0.006801743 -0.01757529 -0.018485148 -0.01850618
-0.01850618 -0.01850618 -0.018504191 -0.018506177 -0.018514045 -0.040295247 -0.04834011 -0.020420775
-0.022822883 -0.015633745 -0.013155385 0.063177794 0.07089993 0.07544336 0.078939885 0.04821381
-0.020315887 -0.0230783 -0.036497775 -0.044983048 -0.025838502 -0.025726896 -0.016699335 0.0008558001
0.005995006 -0.013917825 -0.01522785 -0.01850618 -0.01850618 -0.01850618 -0.01850618 -0.018505905
-0.018515859 -0.04812653 -0.042185966 -0.0339915 -0.021494238 -0.012187993 0.051955562 0.07644928
0.053433955 0.0058609797 -0.0067856913 -0.035879016 -0.043592956 -0.038030297 -0.038886912 -0.039043184
-0.025191942 -0.033681907 -0.031164024 -0.005969598 -0.005220104 -0.014092302 -0.017870262 -0.018493038
-0.01850618 -0.01850618 -0.018495549 -0.01849547 -0.01845685 -0.035678267 -0.016756788 0.0034135152
-0.004610871 0.054171328 0.09231259 0.069969095 0.032079387 -0.007120806 -0.0010116613 -0.0027313705
-0.026598046 -0.014258118 -0.008930478 -0.0041302154 -0.01953059 -0.02670557 -0.042098217 -0.03180129
-0.013355216 -0.014685531 -0.018374205 -0.018503118 -0.01850618 -0.01850618 -0.018494539 -0.018493954

momentum_buffer f4 [10]
00000000: dcaf 323d 24bb 9abd 7a29 c83c fd18 433d
00000010: 7fa5 f03c 8232 1bbd a291 0dbc 22f4 7cbc
00000020: c1eb 73bc 98db 75bc
0.043624744 -0.075552255 0.02443384 0.047631253 0.02937579 -0.037889965 -0.008640679 -0.015439065
-0.014887751 -0.0150059685
