Practice4/logs/lightning_logs/version_9/checkpoints/epoch=2-step=1575.ckpt (torch, 66651 bytes, 4 tensors)

l1.weight f4 [10, 784]
0	0xbb926400	-0.0044674873
1	0x3c7c79c4	0.015409891
2	0xbc0a2c0e	-0.008433355
3	0xbc8abf25	-0.016936848
4	0xbb602750	-0.003420312
5	0x3cf63112	0.030052695
6	0x3cd4d2fe	0.025979515
7	0xbd02179c	-0.031760797
8	0xbd023fb3	-0.03179903
9	0x3ca219be	0.019787665
10	0x3c84da6a	0.01621743
11	0x3c0a69b4	0.008448053
12	0xbd07f5fd	-0.033193577
13	0xbcd97915	-0.026546994
14	0x3c599d64	0.013282154
15	0x3d02c12f	0.031922515
16	0x3a43ee00	0.00074741244
17	0xbcc631c0	-0.024193645
18	0x3cade298	0.021226212
19	0xbce4ef23	-0.02794606
20	0x3d045b99	0.032313917
21	0x3ce98e42	0.028510217
22	0x3cafa51a	0.021441031
23	0xbccf18f0	-0.025280446
24	0xbca2ff87	-0.019897236
25	0x3d00b057	0.03141817
26	0xba395e00	-0.0007071197
27	0xbcfa2911	-0.03053716
28	0xbc34c1e0	-0.0110325515
29	0xbb9b1e54	-0.00473384
30	0xbcdb1bcc	-0.026746653
31	0xbd03dce4	-0.03219308
32	0xbc4b19b2	-0.012396263
33	0x3c5442a0	0.012955338
34	0x3d00ff55	0.031493504
35	0xbd0744ca	-0.033024587
36	0xbb0d7810	-0.0021586455
37	0xbc8bd52e	-0.017069425
38	0xbc71adf2	-0.014750944
39	0x3cb52266	0.022111129
40	0xbc1b112a	-0.009464541
41	0xbc1c05e6	-0.009522891
42	0xbbd159c0	-0.006388873
43	0xbd066fc8	-0.032821447
44	0x39fc1d00	0.00048086792
45	0x3cd8b48c	0.026453279
46	0x3ca6efc2	0.020377997
47	0x3c9251d2	0.01786128
48	0xbc950aea	-0.01819368
49	0xbc370966	-0.011171674
50	0xbc601f06	-0.013679272
51	0xbccffa6a	-0.025387961
52	0x3cb3a4be	0.021929141
53	0x3d119e8f	0.035551604
54	0x3c9eae2c	0.019370161
55	0x3d111801	0.035423283
56	0xbbd91880	-0.006625235
57	0x3c1f8828	0.009737052
58	0x3cac5658	0.021037266
59	0xb9618100	-0.00021505728
60	0x3ca37178	0.019951567
61	0xbcd4d080	-0.025978327
62	0x3cc8e268	0.024522021
63	0x3ca8f2de	0.02062362
64	0xbc66b85c	-0.014082041
65	0xbc36e84a	-0.0111637805
66	0xbd0c1445	-0.034199018
67	0xbcbcd79c	-0.02305203
68	0xba1562c0	-0.0005698614
69	0xbc45ffee	-0.012084944
70	0x3c6df970	0.014524803
71	0xbce2c491	-0.02768162
72	0xbcde9018	-0.027168319
73	0xbcf98c47	-0.030462397
74	0xbcb85bad	-0.022504652
75	0xbd078bb3	-0.033092212
76	0x3c9d23d0	0.019182116
77	0xbcff490e	-0.031162765
78	0x3c49a424	0.012307201
79	0x3c08dd50	0.008353546
80	0x3ca58d86	0.020209085
81	0x3cea3362	0.028588954
82	0x3cbe4068	0.02322407
83	0xbbb3e840	-0.005490333
84	0xbced0908	-0.02893497
85	0x3d11e5df	0.035619613
86	0x3b3e22a0	0.0029012337
87	0x3c796928	0.015222825
88	0xbc91f54c	-0.017817162
89	0xbcb9e580	-0.022692442
90	0x3c82a428	0.015947416
91	0xbc9adaec	-0.018903218
92	0xbc837afb	-0.016049853
93	0x3c41a4d1	0.01181908
94	0xbd05c129	-0.032654915
95	0xbd814379	-0.063116975
96	0xbcbb41e5	-0.02285857
97	0xbd67a3ad	-0.056552578
98	0xbd971e73	-0.073788546
99	0xbd932690	-0.071850896
100	0xbe04a345	-0.12952907
101	0xbd5be5ec	-0.053686067
102	0xbc24c388	-0.010056384
103	0x3d073080	0.033005238
104	0xbccc631d	-0.024949605
105	0x3c19e627	0.0093932515
106	0xbcaf9c69	-0.021436887
107	0xbaac1040	-0.0013127401
108	0xbcfa7ca1	-0.030577006
109	0x3cb4760a	0.022028942
110	0x3ccbed98	0.024893567
111	0xba968f60	-0.0011486821
112	0xbca72d05	-0.02040721
113	0xbc360ae6	-0.011110997
114	0x3c4956e8	0.0122887865
115	0x3b85b248	0.0040800907
116	0xbd0707a7	-0.032966282
117	0xbcd431ce	-0.025902655
118	0xbcebbeae	-0.028777447
119	0x3c7cc740	0.015428364
120	0x3c9373c9	0.017999547
121	0xbca64853	-0.020298159
122	0xbd4a3cab	-0.049374264
123	0xbdcf9ddb	-0.101375304
124	0xbdd6f2ad	-0.104955055
125	0xbc9f54fd	-0.019449705
126	0xbdafe7c9	-0.085891314
127	0xbde4090f	-0.1113454
128	0xbd556951	-0.05210239
129	0x3ca956e9	0.020671325
130	0x3cd5c0cd	0.026092911
131	0x3c87b298	0.016564652
132	0xbd9036da	-0.07041712
133	0xbd93534f	-0.07193624
134	0x3cc07e10	0.023497611
135	0xbd0e8f60	-0.0348047
136	0x3d0de47b	0.034641724
137	0x3c7a4ddc	0.015277352
138	0x3c0282c0	0.007965744
139	0x3c128984	0.008943919
140	0x39db5480	0.00041833892
141	0x3c0f6d28	0.008754052
142	0xbcfae2ec	-0.030625783
143	0x3c76a5e4	0.0150542
144	0xbce6ceb5	-0.028174737
145	0x3ca59c82	0.02021623
146	0x3c2c8332	0.010529326
147	0xbd944a05	-0.072406806
148	0xbd6d0ef7	-0.0578756
149	0xbe127ccc	-0.14305419
150	0xbe184ffe	-0.14874265
151	0xbd30d468	-0.043171316
152	0xbd78e43f	-0.060764547
153	0xbd5455ff	-0.051839825
154	0x3d0a3b20	0.033747792
155	0x3d8334fc	0.0640659
156	0x3d7934ce	0.060841374
157	0x3d8bcd1a	0.068262294
158	0x3d787507	0.06065848
159	0x3d6564d4	0.05600436
160	0x3bed222a	0.0072367387
161	0xbcadbe40	-0.021208882
162	0xbbed0605	-0.0072333836
163	0x3b9c359d	0.0047671334
164	0xbb84c8b8	-0.004052248
165	0xbc9fffe5	-0.0195312
166	0xbb3b5220	-0.0028582886
167	0xbbd82ec8	-0.0065973736
168	0x3bd4f9f8	0.006499525
169	0xbce2ff6c	-0.027709685
170	0x3cd7b66c	0.026332103
171	0x3ca6eeac	0.02037748
172	0xba5ffb40	-0.0008544214
173	0xbcfbfe33	-0.03076086
174	0xbda373ec	-0.07981095
175	0xbdc74736	-0.09730379
176	0xbe25bfd3	-0.16186456
177	0xbe43f77d	-0.19137378
178	0xbdfb3583	-0.12266066
179	0xbd951c8b	-0.07280835
180	0x3d841b5f	0.06450533
181	0x3e16ff35	0.14745791
182	0x3e5aba4c	0.21360129
183	0x3d895bc5	0.06706957
184	0x3d84ccff	0.064844124
185	0xbc7a2fce	-0.015270187
186	0x3d80e1f7	0.062930994
187	0x3d8a27da	0.06745882
188	0x3c825f15	0.01591448
189	0x3b80909d	0.0039234892
190	0x3dc00120	0.093752146
191	0x3c8bf0a5	0.017082522
192	0x3cc07e8a	0.023497839
193	0x3c08f23c	0.008358534
194	0x3c808644	0.015689023
195	0xbc5f6a32	-0.013636159
196	0x3ca8c6e6	0.020602655
197	0xbc66d606	-0.014089113
198	0xbaab9b20	-0.0013092496
199	0xbcee25be	-0.029070731
200	0xbd0a9a6e	-0.033838682
201	0x3b6cc85d	0.0036130168
202	0xbddbb7ed	-0.107284404
203	0xbdf69a47	-0.12041145
204	0xbdf3bf7a	-0.11901756
205	0xbd2bce80	-0.04194498
206	0x3d79a320	0.060946584
207	0x3ce837ba	0.028346885
208	0x3d9e9260	0.077427626
209	0x3def76ef	0.11692607
210	0x3d47f631	0.04881877
211	0xbd0ec40c	-0.034854934
212	0xbd58d524	-0.05293764
213	0x3bff4728	0.007790465
214	0x3cfd65f8	0.030932412
215	0xbc200485	-0.009766703
216	0x3ce14964	0.027500816
217	0x3dcd19c7	0.10014682
218	0x3d58215a	0.05276618
219	0x3d3df239	0.04637358
220	0xbb8e68dc	-0.0043459963
221	0x3af7e400	0.0018912554
222	0xbb72af50	-0.0037030764
223	0xbd070ff4	-0.0329742
224	0x3c97d92c	0.018536173
225	0xbc94cac3	-0.01816309
226	0x3c35b508	0.0110905245
227	0xbd0facdf	-0.035076972
228	0xbc34e70a	-0.011041412
229	0xbc98887c	-0.018619768
230	0xbdc98cd8	-0.09841317
231	0xbe29db7f	-0.16587637
232	0xbdd39c2e	-0.10332523
233	0xbdd6da52	-0.1049086
234	0xbdf6324c	-0.12021312
235	0xbdbd92c3	-0.09256508
236	0x3b57c229	0.0032922125
237	0xbd033fbc	-0.032043204
238	0xbd7fb58c	-0.062428996
239	0xbde90881	-0.11378575
240	0xbd4499ef	-0.047998365
241	0x3cfc26d3	0.030780232
242	0x3d66a883	0.05631305
243	0xbd2144b7	-0.039372172
244	0x3e23a60c	0.1598131
245	0x3e350365	0.17677076
246	0x3db95b78	0.090506494
247	0xbb99dd9f	-0.0046956087
248	0x3d21c13b	0.03949092
249	0xbd05674b	-0.03256921
250	0x3c145ff8	0.009056084
251	0x3cbda982	0.023152117
252	0x3d054ed7	0.03254589
253	0xbc3dcf06	-0.011585003
254	0x3cc9946a	0.024606902
255	0x3d0f3c41	0.034969572

l1.bias f4 [10]
0	0x3cacecab	0.021108946
1	0xbbf393af	-0.0074333767
2	0xbb485ce0	-0.0030572936
3	0x3d0273e3	0.0318488
4	0x3c88c6e2	0.016696397
5	0xbcce4bea	-0.025182683
6	0xbc8c9651	-0.01716152
7	0xbbaf6cc6	-0.005353543
8	0x3c513ea3	0.012771281
9	0x3c95eeec	0.018302403

momentum_buffer f4 [10, 784]
0	0x00000000	0.0
1	0x00000000	0.0
2	0x00000000	0.0
3	0x00000000	0.0
4	0x00000000	0.0
5	0x00000000	0.0
6	0x00000000	0.0
7	0x00000000	0.0
8	0x00000000	0.0
9	0x00000000	0.0
10	0x00000000	0.0
11	0x00000000	0.0
12	0x00000000	0.0
13	0x00000000	0.0
14	0x00000000	0.0
15	0x00000000	0.0
16	0x00000000	0.0
17	0x00000000	0.0
18	0x00000000	0.0
19	0x00000000	0.0
20	0x00000000	0.0
21	0x00000000	0.0
22	0x00000000	0.0
23	0x00000000	0.0
24	0x00000000	0.0
25	0x00000000	0.0
26	0x00000000	0.0
27	0x00000000	0.0
28	0x00000000	0.0
29	0x00000000	0.0
30	0x00000000	0.0
31	0x00000000	0.0
32	0x00000000	0.0
33	0x00000000	0.0
34	0x00000000	0.0
35	0x00000000	0.0
36	0x00000000	0.0
37	0x00000000	0.0
38	0x00000000	0.0
39	0x00000000	0.0
40	0x00000000	0.0
41	0x00000000	0.0
42	0x00000000	0.0
43	0x00000000	0.0
44	0x00000000	0.0
45	0x00000000	0.0
46	0x00000000	0.0
47	0x00000000	0.0
48	0x00000000	0.0
49	0x00000000	0.0
50	0x00000000	0.0
51	0x00000000	0.0
52	0x00000000	0.0
53	0x00000000	0.0
54	0x00000000	0.0
55	0x00000000	0.0
56	0x00000000	0.0
57	0x00000000	0.0
58	0x00000000	0.0
59	0x00000000	0.0
60	0x00000000	0.0
61	0x00000000	0.0
62	0x80000004	-6e-45
63	0x80000004	-6e-45
64	0x00000000	0.0
65	0x00000000	0.0
66	0x00000000	0.0
67	0x00000000	0.0
68	0x00000004	6e-45
69	0x00000004	6e-45
70	0x00000004	6e-45
71	0x00000004	6e-45
72	0x00000004	6e-45
73	0x00000004	6e-45
74	0x00000004	6e-45
75	0x00000004	6e-45
76	0x00000000	0.0
77	0x00000000	0.0
78	0x00000000	0.0
79	0x00000000	0.0
80	0x00000000	0.0
81	0x00000000	0.0
82	0x00000000	0.0
83	0x00000000	0.0
84	0x00000000	0.0
85	0x00000000	0.0
86	0x00000000	0.0
87	0x00000000	0.0
88	0x00000000	0.0
89	0x00000000	0.0
90	0x00000000	0.0
91	0x00000000	0.0
92	0x00000004	6e-45
93	0x00000004	6e-45
94	0x00000004	6e-45
95	0x00000004	6e-45
96	0x00000004	6e-45
97	0x80000004	-6e-45
98	0x80000004	-6e-45
99	0x80000004	-6e-45
100	0x80000004	-6e-45
101	0x00000004	6e-45
102	0x00000004	6e-45
103	0x00000004	6e-45
104	0xa7074da5	-1.8777105e-15
105	0xa7175380	-2.1000725e-15
106	0xa6346799	-6.2590446e-16
107	0x00000000	0.0
108	0x00000000	0.0
109	0x00000000	0.0
110	0x00000000	0.0
111	0x00000000	0.0
112	0x00000000	0.0
113	0x00000000	0.0
114	0x00000000	0.0
115	0x00000000	0.0
116	0x00000000	0.0
117	0x00000004	6e-45
118	0x00000004	6e-45
119	0x00000004	6e-45
120	0x00000004	6e-45
121	0x00000004	6e-45
122	0xa9f83905	-1.1023304e-13
123	0xab0f07f2	-5.081483e-13
124	0xbbd34e6e	-0.0064485585
125	0xbcb37478	-0.021906123
126	0xbcc552a6	-0.024087261
127	0xbcc552a6	-0.024087261
128	0xbcc574d4	-0.02410356
129	0xbca2be5d	-0.019866163
130	0xbc0af261	-0.008480639
131	0xba33cb62	-0.00068586145
132	0xb6d9aa19	-6.486906e-06
133	0xb653bf8d	-3.1552947e-06
134	0xb6c01c8b	-5.7253687e-06
135	0x95e2e46d	-9.1641065e-26
136	0x00000000	0.0
137	0x00000000	0.0
138	0x00000000	0.0
139	0x00000000	0.0
140	0x00000000	0.0
141	0x00000000	0.0
142	0x00000000	0.0
143	0x00000000	0.0
144	0x00000004	6e-45
145	0x00000004	6e-45
146	0x00000004	6e-45
147	0x00000004	6e-45
148	0x9a1b76e7	-3.2149297e-23
149	0xa9660f63	-5.1083605e-14
150	0xbaa2315c	-0.0012374329
151	0xbc5f077e	-0.013612626
152	0xbcc3844d	-0.023866797
153	0xbcc4dd71	-0.024031373
154	0xbc90446b	-0.01761075
155	0xbc5edd34	-0.013602544
156	0xbca07f75	-0.019592026
157	0xbcbde3f5	-0.023179987
158	0xbcc49df1	-0.024001094
159	0xbc80349a	-0.015650082
160	0xbb4d2596	-0.003130292
161	0xb6d3dcbd	-6.3139873e-06
162	0xb7c222f8	-2.3142886e-05
163	0x97b39f72	-1.1607854e-24
164	0x00000004	6e-45
165	0x00000000	0.0
166	0x00000000	0.0
167	0x00000000	0.0
168	0x00000000	0.0
169	0x00000000	0.0
170	0x00000000	0.0
171	0x00000000	0.0
172	0x00000004	6e-45
173	0x00000004	6e-45
174	0x00000004	6e-45
175	0x9915b4e9	-7.739654e-24
176	0x9b257dc9	-1.3689123e-22
177	0xaad871be	-3.8448232e-13
178	0xbc3c01aa	-0.011475006
179	0xbcc49b69	-0.023999887
180	0xbcc513bd	-0.024057264
181	0xbc9f3dfa	-0.019438732
182	0xb9d1e1b0	-0.00040031737
183	0xb8db11b8	-0.00010446034
184	0xb8ac0fdd	-8.204554e-05
185	0xba278710	-0.00063906703
186	0xbc71ff58	-0.014770351
187	0xbcbf9447	-0.023386134
188	0xbc771cb2	-0.015082525
189	0xb9ffebdb	-0.00048813116
190	0xb8354017	-4.321345e-05
191	0xb73b64f4	-1.1169574e-05
192	0x80000004	-6e-45
193	0x00000000	0.0
194	0x00000000	0.0
195	0x00000000	0.0
196	0x00000000	0.0
197	0x00000000	0.0
198	0x00000000	0.0
199	0x00000000	0.0
200	0x00000004	6e-45
201	0x00000004	6e-45
202	0x80000004	-6e-45
203	0xa741bc16	-2.6886092e-15
204	0xaaa67e67	-2.9575233e-13
205	0xbbca0f46	-0.0061663715
206	0xbcc27e01	-0.023741724
207	0xbcc50986	-0.024052393
208	0xbc06fc75	-0.008238901
209	0xba584a7c	-0.0008250845
210	0xb81c145a	-3.7212252e-05
211	0xb7ddd462	-2.6444151e-05
212	0xb8268339	-3.9699695e-05
213	0xb8a053ff	-7.64504e-05
214	0xb8e6dd6c	-0.00011008498
215	0xbc840a65	-0.016118238
216	0xbcc4f668	-0.024043277
217	0xbbd1a7a5	-0.0063981586
218	0xb840d4eb	-4.5974662e-05
219	0xb7e354b2	-2.7099948e-05
220	0xa4af916e	-7.614052e-17
221	0x00000000	0.0
222	0x00000000	0.0
223	0x00000000	0.0
224	0x00000000	0.0
225	0x00000000	0.0
226	0x00000000	0.0
227	0x00000000	0.0
228	0x00000004	6e-45
229	0x00000004	6e-45
230	0x80000004	-6e-45
231	0xaa822a64	-2.3122053e-13
232	0xb7392bf1	-1.103709e-05
233	0xbc5f21c7	-0.013618893
234	0xbcc56ef3	-0.024100756
235	0xbcc57de4	-0.02410788
236	0xbabcccac	-0.0014404259
237	0xb8c059e5	-9.1720176e-05
238	0xb86985e5	-5.5676228e-05
239	0xb80095cd	-3.065709e-05
240	0xb87b75c0	-5.9952727e-05
241	0xb8563a0e	-5.1075644e-05
242	0xb87245b6	-5.776222e-05
243	0xbaea03bb	-0.0017853895
244	0xbcb52448	-0.022112027
245	0xbc9aa087	-0.018875374
246	0xbaf2af17	-0.0018515316
247	0xb840c537	-4.5960038e-05
248	0xa5821bc7	-2.2570228e-16
249	0x00000000	0.0
250	0x00000000	0.0
251	0x00000000	0.0
252	0x00000000	0.0
253	0x00000000	0.0
254	0x00000000	0.0
255	0x00000000	0.0

momentum_buffer f4 [10]
0	0xb8c77644	-9.511088e-05
1	0xbbb1f5e1	-0.0054309224
2	0x00000004	6e-45
3	0x00000004	6e-45
4	0x00000004	6e-45
5	0x00000004	6e-45
6	0x00000004	6e-45
7	0x00000004	6e-45
8	0x00000004	6e-45
9	0x00000004	6e-45
